models/epoch=9-step=130-v2.ckpt (torch, 626656 bytes, 12 tensors)

classifier.0.weight f4 [64, 768]
0	0xba938e45	-0.001125761
1	0xbbbbfe48	-0.0057371
2	0xbc82414f	-0.015900282
3	0x3cd0df56	0.02549712
4	0x3ca66dbd	0.020316
5	0x3d1ab611	0.03777129
6	0xbccab9f9	-0.024746882
7	0xbd31026a	-0.043215193
8	0x3cf90615	0.030398408
9	0x3d1b1112	0.037858076
10	0x3aa57854	0.0012624362
11	0x3c97c0ea	0.018524606
12	0x3cacc7d2	0.021091375
13	0x3cdc14c1	0.026865365
14	0xbcacfd5b	-0.021116903
15	0xbc999d66	-0.018751811
16	0xbcf5bc9c	-0.029997163
17	0xbc8392e9	-0.016061263
18	0xbd07b67f	-0.033133026
19	0x3c340b25	0.010988985
20	0x3c4b11ec	0.01239441
21	0x3d2c53c3	0.04207207
22	0x3c6e855c	0.014558163
23	0x3bce64c2	0.0062986324
24	0xbcbafbec	-0.022825204
25	0x3ceaca79	0.028661
26	0x3d0a39ad	0.03374641
27	0x3a828c0a	0.0009959948
28	0x3c8f3019	0.01747899
29	0x3bd8f35e	0.0066208085
30	0x3ca8111a	0.020515967
31	0x3c16d0f9	0.009205096
32	0xbbeb0c7d	-0.0071731196
33	0x3d05f559	0.032704685
34	0xbcd9de27	-0.026595188
35	0x3d190965	0.037362475
36	0xbc1fec7e	-0.009760974
37	0x3cc48947	0.02399124
38	0xbc2a14d0	-0.010380939
39	0x3ca6a4ce	0.020342257
40	0xbd361d58	-0.044461578
41	0xbcf5e523	-0.030016487
42	0x3c98fe6e	0.018676009
43	0x3bc94798	0.006142568
44	0x3d1e2dc8	0.03861788
45	0x3d1c600d	0.03817754
46	0xbc972cea	-0.018454034
47	0xbd29bffb	-0.041442852
48	0xbc8f7fdb	-0.01751702
49	0xbca0bfdf	-0.019622741
50	0x3cd0d589	0.025492446
51	0x3c6d57a4	0.014486227
52	0xbc972078	-0.0184481
53	0x3c60ab9b	0.013712789
54	0xbcfb0775	-0.030643204
55	0xbae77971	-0.0017660094
56	0x3a244743	0.00062667223
57	0x3cb22bc4	0.021749385
58	0xbbd1116c	-0.0063802507
59	0xbc0121c8	-0.007881589
60	0xbd20f73f	-0.039298292
61	0xbd15760d	-0.036489535
62	0xbcc7c991	-0.024388107
63	0x3d309801	0.043113712
64	0x3b3efc41	0.0029142054
65	0xbccd38f7	-0.025051577
66	0x3ab51598	0.001381564
67	0x3cad89bd	0.021183843
68	0xbb7e3393	-0.0038788065
69	0xbc88491b	-0.016636422
70	0x3d166fbe	0.03672766
71	0x3d018ee5	0.031630415
72	0xbd0d3e07	-0.034482982
73	0xbc92ace2	-0.017904703
74	0xbca68295	-0.020325938
75	0xbca2c078	-0.019867167
76	0x3cd950dd	0.026527816
77	0xbce50f30	-0.027961344
78	0x3c9a4a6b	0.018834313
79	0x3cad77c5	0.021175275
80	0x3c0cbb8e	0.008589638
81	0xbb12c68f	-0.0022396182
82	0xbb6e7168	-0.0036383513
83	0x3cd84b7c	0.026403181
84	0x3bbb0998	0.005707931
85	0xbd043793	-0.032279562
86	0xbc884eeb	-0.016639194
87	0x3bd1e808	0.006405834
88	0x3c8cafb8	0.017173633
89	0xbd27fc5a	-0.041012146
90	0x3c68955c	0.014195766
91	0xbb9114a0	-0.0044275075
92	0xbcce2498	-0.025163934
93	0xbcae2da7	-0.021262003
94	0x3c90bc73	0.017667985
95	0x3cc7e2fc	0.024400227
96	0xbca5a62f	-0.020220844
97	0xbc2c26f7	-0.010507337
98	0xbbe60ebc	-0.0070207994
99	0x3bce249c	0.0062909853
100	0x3c131af8	0.008978598
101	0x3caa219d	0.020767981
102	0x3c2e25ed	0.010629159
103	0xbcc98ded	-0.024603808
104	0xbb028361	-0.0019914734
105	0xbc120ff4	-0.008914936
106	0x3cd73fd0	0.026275545
107	0x3d2c26c5	0.04202916
108	0xbb8d129c	-0.004305197
109	0x3b882534	0.0041548256
110	0xbce323e2	-0.027727071
111	0xbc825198	-0.015908048
112	0x3b9f2129	0.004856248
113	0x3cf06473	0.029344773
114	0xbbd70e34	-0.0065629724
115	0xbd224f77	-0.039626565
116	0xb981f652	-0.0002478832
117	0x3b6cee5c	0.0036152815
118	0x3c266c8d	0.010157716
119	0xbbdc50b1	-0.0067234864
120	0xbd392d61	-0.045209292
121	0x3b940d67	0.0045181992
122	0x3cc1b0a9	0.023643808
123	0x3bf5a20f	0.0074961255
124	0x3c7728fb	0.015085454
125	0xbc4eb156	-0.012615522
126	0x3c8eb3c2	0.0174197
127	0x3d17b698	0.03703937
128	0x3c9a6c11	0.018850358
129	0x3cdb7e0f	0.026793508
130	0x3cd35bdb	0.025800636
131	0x3cc08850	0.023502499
132	0x3d2abfb5	0.041686732
133	0x3d109dec	0.035306856
134	0x3c746757	0.014917216
135	0x3b23cf9a	0.0024995566
136	0xbd1a1bd3	-0.03762419
137	0xbba68573	-0.0050818264
138	0x3b926a77	0.004468258
139	0xbc78b876	-0.015180698
140	0x3c64c8ff	0.013963937
141	0x3c85a772	0.016315196
142	0x3d27d4be	0.04097437
143	0xbca25b64	-0.01981897
144	0x3cc69ece	0.024245646
145	0x3c3903da	0.011292422
146	0xbd375ed8	-0.044768184
147	0x3cc430ad	0.023948992
148	0x3bf4a993	0.007466504
149	0xbc605808	-0.013692863
150	0x3b4ff548	0.0031731892
151	0x3ca8822e	0.020569887
152	0x3c96c7ea	0.018405873
153	0x3c21e9e8	0.009882428
154	0x3c0e1bca	0.008673618
155	0x3a8f2255	0.0010920266
156	0x3bd1c8b4	0.0064020995
157	0x3b52889b	0.003212488
158	0xbd1874da	-0.037220813
159	0xbcf513d6	-0.029916685
160	0xbd022483	-0.0317731
161	0x3d137753	0.03600247
162	0x3d23f415	0.040027697
163	0x3c9e056f	0.0192897
164	0x3c793ab6	0.015211752
165	0x3c9d7999	0.019223021
166	0xbaada44f	-0.001324782
167	0x3c671769	0.0141047025
168	0x3cfa9d6b	0.03059264
169	0xbcaefb7d	-0.021360153
170	0x3d2f3a91	0.042780463
171	0xbd1b60b5	-0.037934024
172	0x39afafff	0.00033509728
173	0x3cd36123	0.025803154
174	0x3c4ca837	0.012491277
175	0xbcc53c8e	-0.024076726
176	0x3c4ed899	0.012624883
177	0xbbb70d32	-0.00558629
178	0xbae212c8	-0.0017248029
179	0xbca40fdc	-0.020027094
180	0xbca5a19d	-0.020218665
181	0xbcc8946c	-0.024484836
182	0xbd094732	-0.033515163
183	0x3caeb2a6	0.02132542
184	0x3cfe9513	0.031076944
185	0x3c84f0e7	0.016228152
186	0xbbd9e0d1	-0.0066491147
187	0xbc34adf4	-0.011027802
188	0xbc273dc7	-0.0102076
189	0xbc17120c	-0.009220611
190	0xbc42c8af	-0.011888667
191	0xbce1e11a	-0.027573157
192	0xbb490e27	-0.0030678601
193	0xbc11eff2	-0.008907305
194	0x3c831cfa	0.016005028
195	0xbcfe2edd	-0.031028206
196	0xbd0ac184	-0.033875957
197	0xbcd30d77	-0.025763256
198	0x3c919bf0	0.017774552
199	0xbbbfb3fd	-0.0058503137
200	0x3c9fd038	0.019508466
201	0x3ba291de	0.0049612364
202	0xbc8651e4	-0.01639647
203	0x3c7413db	0.014897312
204	0x3cab01c3	0.020874863
205	0xbc4e00d6	-0.0125734415
206	0xbca3dac9	-0.020001786
207	0xbd2a6f5b	-0.041610103
208	0xbd001e47	-0.031278875
209	0xbd1fbff0	-0.039001405
210	0x3d4fc525	0.05072512
211	0xbbbd8495	-0.0057836273
212	0xbc85958f	-0.016306667
213	0x3c00d606	0.007863527
214	0xbc6ad59e	-0.014333157
215	0x3c7a0af8	0.015261404
216	0x3c8f8ce4	0.017523237
217	0x3cfa627e	0.030564543
218	0xbccf8e17	-0.025336308
219	0xbc456466	-0.012047863
220	0xbcdb2d9a	-0.026755143
221	0xbd2df5c6	-0.042470716
222	0xbb45cb69	-0.0030181056
223	0xbd22a1bf	-0.039705034
224	0xbc92e374	-0.017930724
225	0xba430937	-0.0007440033
226	0x3d271e3d	0.04080032
227	0xbd11b825	-0.035576005
228	0xbd206669	-0.039160166
229	0x3cb93c1d	0.022611672
230	0x3cbb4fbf	0.022865174
231	0xbc4f568f	-0.0126549145
232	0x3c3e2432	0.011605309
233	0xbb9e6bd9	-0.004834634
234	0xbcdca84c	-0.026935719
235	0xbc82fa2a	-0.015988428
236	0x3c8fb6ad	0.017543161
237	0xbcc3bfac	-0.023895107
238	0xbd5f3c3f	-0.054500815
239	0xbcf847f0	-0.03030774
240	0x3d03210b	0.032013934
241	0xbd0b18c0	-0.03395915
242	0x3b723e8c	0.003696355
243	0x3adbbb70	0.0016764235
244	0xbce7d0bc	-0.028297774
245	0xbca22d3c	-0.01979696
246	0xbcf182c5	-0.029481301
247	0x3c1bfcc7	0.009520716
248	0x3be15a62	0.0068772295
249	0xbcb593c6	-0.02216519
250	0xbbf03264	-0.007330226
251	0x3c9277c4	0.017879374
252	0xbb9abe32	-0.00472238
253	0x3ce4793c	0.02788984
254	0xbc18c8f1	-0.009325252
255	0xbd0b5a73	-0.034021806

classifier.0.bias f4 [64]
0	0x3cc392f7	0.02387379
1	0xbd63e9ad	-0.055642772
2	0xbcc0d0e4	-0.023537107
3	0x3ce6f08b	0.028190872
4	0xbb945261	-0.004526422
5	0x3cb01458	0.021494076
6	0x3c26834a	0.010163138
7	0xbcb6e5e2	-0.022326414
8	0xbd1ee714	-0.038794592
9	0x3beda2bc	0.0072520655
10	0xbc0320a0	-0.008003384
11	0x3d2438e9	0.040093336
12	0xbc9f873e	-0.019473668
13	0xbd0b95f4	-0.034078553
14	0xbcb5427b	-0.022126427
15	0x3d0777ab	0.03307311
16	0xbd2dfdd9	-0.042478416
17	0x3c2c2bf4	0.010508526
18	0x3d4bfbd9	0.049800728
19	0xbae89633	-0.0017744958
20	0xbc0f8f16	-0.008762142
21	0x3c067cf2	0.0082085
22	0xba5ffcb4	-0.00085444306
23	0x3d08b58e	0.03337627
24	0xbd1e391e	-0.03862869
25	0x3d6976fb	0.056998234
26	0x3c8ea513	0.017412698
27	0x3bb219df	0.005435213
28	0xbb2d38a8	-0.0026431475
29	0x3b21c3d2	0.0024683368
30	0xbcc00c5c	-0.023443393
31	0xbc3f8b70	-0.011690959
32	0xbcd3a218	-0.025834128
33	0x3cee882b	0.029117664
34	0xbc429995	-0.011877437
35	0xbd19d700	-0.037558556
36	0x3a8d2645	0.0010768851
37	0x3be69d02	0.0070377598
38	0x3d1ebf4b	0.03875665
39	0x3c274756	0.010209879
40	0x39296009	0.00016152872
41	0x3cc74dd4	0.024329104
42	0xbb8bc63c	-0.0042655747
43	0x3d636e89	0.055525336
44	0x3cdf8f02	0.027289871
45	0x3c11feea	0.008910874
46	0x3d22b464	0.039722815
47	0xbb48326a	-0.0030547627
48	0x3ca4d440	0.02012074
49	0xbc859ad2	-0.016309176
50	0x3c89a229	0.016800957
51	0xbc2dc7b5	-0.010606696
52	0xbc8af4af	-0.016962377
53	0x3d5aa170	0.053376615
54	0x3d2cac46	0.04215648
55	0x3c13a36f	0.009011134
56	0x3bff3886	0.0077887205
57	0xbc7b2320	-0.015328199
58	0x391e0972	0.00015071573
59	0xbc5aeb20	-0.013361722
60	0xbc97cbb1	-0.018529745
61	0x3c8b68e0	0.017017782
62	0x3d3693ef	0.044574674
63	0xbd0f6d0d	-0.03501611

classifier.2.weight f4 [32, 64]
0	0xbdb0ba8e	-0.086293325
1	0xbdde6834	-0.10859719
2	0x3d8ee28b	0.069768034
3	0xbd1527cd	-0.03641491
4	0xbc794d49	-0.01521618
5	0xbd4b90f7	-0.049698796
6	0x3dfa9cac	0.12236914
7	0xbc02fa57	-0.007994256
8	0xbe1966c2	-0.14980605
9	0x3da59a2f	0.08086049
10	0x3d94ffb5	0.07275335
11	0x3cd8f323	0.026483124
12	0xbddd96a6	-0.108197495
13	0xbbe6162a	-0.007021685
14	0xbd5de6aa	-0.054175057
15	0x3db63a45	0.08897833
16	0xbd9b7f7e	-0.075926766
17	0x3d62942b	0.055317085
18	0x3cda04ad	0.026613558
19	0x3de3235d	0.110907294
20	0xbe04a447	-0.12953292
21	0x3cf1f3b8	0.02953516
22	0x3cc77667	0.02434845
23	0x3d225f2e	0.03964155
24	0xbe0fa190	-0.14026475
25	0x3e0649a0	0.13114023
26	0x3e0464ee	0.12929127
27	0xbd64c124	-0.055848256
28	0x3de423cf	0.111396424
29	0x3ae2fe44	0.0017318209
30	0xbc0888d6	-0.0083334055
31	0x3d17fc2b	0.03710572
32	0xbdcc2a49	-0.09969003
33	0x3c25ecdf	0.010127275
34	0x3d15a0a8	0.036530167
35	0xbcd571ec	-0.026055299
36	0xbd8c94be	-0.06864308
37	0xbe03afb2	-0.12859991
38	0x3dbba8c6	0.0916305
39	0x3d87e263	0.06634977
40	0xbe174119	-0.14770927
41	0x3cd6d3ab	0.026223978
42	0xbe194c9e	-0.14970633
43	0x3d8eab9f	0.06966328
44	0xbdc9b669	-0.09849245
45	0x3d8cc813	0.06874099
46	0x3cbd5be0	0.023115098
47	0x3de1bd6e	0.11022459
48	0x3aa92815	0.0012905622
49	0xbc95fe39	-0.0183097
50	0xbde94e7d	-0.113919236
51	0xbd5d1374	-0.05397363
52	0xbd230e2b	-0.039808434
53	0x3ce6ef2a	0.028190214
54	0x3d9ff31f	0.078100435
55	0x3dd3ab51	0.103354104
56	0x3ddb62d6	0.10712211
57	0x3a8f5392	0.001093494
58	0x3db39e9a	0.08770485
59	0x3ce676ef	0.028132884
60	0xbda6dc43	-0.0814748
61	0x3dc40e9d	0.095731
62	0x3dcd45e7	0.100230984
63	0xbdf81969	-0.121142216
64	0xbde63a1d	-0.11241553
65	0x3b99356f	0.0046755592
66	0xbd7a872a	-0.06116406
67	0x3e14e4ca	0.14540401
68	0x3c75063d	0.014955101
69	0x3dfb494b	0.12269839
70	0x3dd49276	0.10379498
71	0xbc8fa0ef	-0.017532794
72	0x3d0d38ab	0.03447787
73	0x3db8a65f	0.09016108
74	0xbd9473d7	-0.07248657
75	0x3d20ccd6	0.039257847
76	0xbde322bb	-0.11090609
77	0x3cd07c68	0.025449947
78	0x3e1a972c	0.1509673
79	0xbe13728d	-0.14399166
80	0x3d009177	0.031388726
81	0x3d1a2f01	0.037642483
82	0x3dc694dc	0.096963614
83	0xbdf46b02	-0.119344726
84	0xbdfa82d5	-0.122319855
85	0x3dd7c1db	0.10535022
86	0x3e0d8cb2	0.13823202
87	0x3d6d8946	0.057992242
88	0x3dd3f62b	0.10349687
89	0x3dfb473d	0.12269447
90	0xbcad1d56	-0.021132153
91	0xbe06c044	-0.13159281
92	0x3e0b71d6	0.13617644
93	0x3d9b2bc7	0.07576709
94	0xbdaf86b0	-0.085706115
95	0x3d288df6	0.04115101
96	0x3d59cbbd	0.053172816
97	0x3dcf7a6b	0.10130771
98	0x3df3f859	0.11912603
99	0xbbd8a765	-0.006611752
100	0xbdcbfc9d	-0.099602915
101	0xbd1592e0	-0.036517024
102	0xbdda2574	-0.10651675
103	0x3e0e3583	0.138876
104	0xbd29dfdf	-0.041473266
105	0xbdc8d479	-0.09806151
106	0xbcfe3e15	-0.031035462
107	0x3dce3bb4	0.10069981
108	0x3e08e8f3	0.13370113
109	0xbdbd909d	-0.092560984
110	0x3dbfc14c	0.0936304
111	0xbdd450e2	-0.1036699
112	0x3d60a14d	0.05484133
113	0x3de2206c	0.1104134
114	0xbd9546a6	-0.07288866
115	0xbd76202e	-0.060089283
116	0x3cf34c83	0.02969957
117	0x3dc19dfd	0.09453962
118	0x3bc5d576	0.0060374094
119	0x3d7bfcda	0.061520435
120	0x3d88ef32	0.06686248
121	0xbe148dbd	-0.14507194
122	0xbcafdca9	-0.021467524
123	0x3d1cde04	0.038297668
124	0xbdfc4d7d	-0.12319467
125	0x3ba5b5bd	0.0050570653
126	0x3d12bd12	0.035824843
127	0xbde98738	-0.11402744
128	0x3dfb42ef	0.12268626
129	0x3da6259e	0.08112644
130	0x3d6dfe0e	0.058103614
131	0xbdf28850	-0.11842406
132	0x3ddd4f3e	0.1080613
133	0xbdf72c34	-0.12068978
134	0xbe12b1b1	-0.14325596
135	0x3d99e3dc	0.07514164
136	0xbd41e901	-0.04734135
137	0x3d8f0868	0.06984025
138	0x3c3f82f1	0.011688934
139	0xbd879ae2	-0.066213384
140	0x3baffc68	0.0053706653
141	0x3da8a17f	0.08233928
142	0xbe138f8f	-0.14410232
143	0xbce75df7	-0.028243048
144	0x3c65b36d	0.014019829
145	0xbe064454	-0.13112003
146	0x3b651e52	0.00349607
147	0xbdfa5edc	-0.12225124
148	0x3db635c5	0.088969745
149	0x3d115729	0.035483513
150	0x3da45028	0.08023101
151	0xbd2359ba	-0.03988049
152	0x3dff70b7	0.124726705
153	0xbdc011e1	-0.0937841
154	0xbd178928	-0.036996037
155	0xbd6fd246	-0.05855014
156	0xbd6865e8	-0.05673781
157	0x3d3c6ed1	0.04600412
158	0xbdf0e04a	-0.1176153
159	0xbdd77ad3	-0.10521474
160	0xbdb080cc	-0.08618316
161	0xbd0e5047	-0.034744527
162	0x3cdc718f	0.026909618
163	0x3c8c69b8	0.017140254
164	0xbdbe15ab	-0.092814766
165	0xbdc9be34	-0.098507315
166	0xbe098356	-0.13429007
167	0x3d686649	0.05673817
168	0xbd28f350	-0.041247666
169	0x3dc8b305	0.0979977
170	0x3e14f7fe	0.14547727
171	0xbd0ee356	-0.034884773
172	0xbdb01c39	-0.08599133
173	0x3d317d39	0.043332312
174	0xbcc7faf3	-0.024411654
175	0x3d4021ca	0.046907224
176	0xbe0af470	-0.13569808
177	0xbd527c9c	-0.051388368
178	0x3deb2057	0.11480778
179	0x3c183186	0.009289151
180	0x3cbfbd83	0.023405796
181	0xbd552cb0	-0.05204457
182	0xbe1028a4	-0.14078003
183	0x3cb0984c	0.021556996
184	0xbc999b51	-0.018750818
185	0x3dbca648	0.09211403
186	0x3a424dee	0.0007412125
187	0xbe0a8618	-0.13527715
188	0x3c8ddc4c	0.01731696
189	0x3dbbf355	0.09177271
190	0xbd77115c	-0.06031929
191	0xbd176c68	-0.03696862
192	0x3d222c0c	0.039592788
193	0x3d93eea1	0.07223249
194	0x3db19320	0.0867064
195	0xbdd132d5	-0.102147736
196	0x3da5f08d	0.08102522
197	0x3d65712e	0.05601614
198	0xbdec363a	-0.115337804
199	0xbd76a46a	-0.06021539
200	0x3e199725	0.14999063
201	0xbd9abeca	-0.075559214
202	0x3d6ae474	0.057346776
203	0xbe09eb97	-0.13468777
204	0xbcb30e84	-0.021857508
205	0x3c21ab25	0.009867464
206	0xbc3503e4	-0.011048291
207	0xbd598105	-0.05310156
208	0x3e0ed258	0.13947427
209	0xbe002eed	-0.12517901
210	0xbe02f4fc	-0.12788767
211	0xbc75e0eb	-0.015007238
212	0x3d2fbe31	0.04290599
213	0xbde22c51	-0.11043609
214	0x3db23ec3	0.08703377
215	0x3d4fc2b7	0.050722804
216	0x3e13f125	0.14447458
217	0x3da15fa1	0.07879568
218	0x3db14484	0.086556464
219	0xbd0cdfeb	-0.034393232
220	0xbe162e83	-0.1466618
221	0x3db91647	0.09037452
222	0xbc94da5a	-0.018170524
223	0xbc2a2515	-0.010384818
224	0x3dae0a2a	0.084980324
225	0xbdf53e32	-0.119747534
226	0x3d348198	0.044068903
227	0xbe00a95a	-0.12564602
228	0xbb6ef30a	-0.003646078
229	0xbddd69bc	-0.10811183
230	0xbda82c88	-0.08211619
231	0xbd87f7a5	-0.06639031
232	0x3dce86b7	0.100842886
233	0xbd7c1ed8	-0.061552852
234	0xbcf75c68	-0.03019543
235	0xbe181dde	-0.14855143
236	0xbdf4024e	-0.11914502
237	0x3bf45483	0.0074563636
238	0xbd05635a	-0.032565452
239	0xbdc301c0	-0.09521818
240	0x3c83ffa0	0.016113102
241	0xbe05671c	-0.13027614
242	0xbda4c4e2	-0.08045365
243	0xbdd03453	-0.1016623
244	0xbcc43bce	-0.023954298
245	0xbdbcef1d	-0.09225295
246	0x3d4b359c	0.049611673
247	0x3ccdb974	0.025112845
248	0x3d8c702e	0.06857334
249	0xbd616209	-0.055025134
250	0x3cdd62ef	0.027024714
251	0xbd15537b	-0.036456566
252	0x3bc16437	0.005901839
253	0xbd9e8f1c	-0.0774214
254	0xbd89175c	-0.066939086
255	0x3cd4b33a	0.025964368

classifier.2.bias f4 [32]
0	0x3df2fde8	0.11864835
1	0x3c826d95	0.015921393
2	0xbdcb47d1	-0.09925807
3	0xbded014b	-0.11572512
4	0xbe12ca5b	-0.14335005
5	0xbdc73eec	-0.09728798
6	0x3cd85b35	0.026410678
7	0xbd3b1236	-0.045671664
8	0x3d585100	0.052811623
9	0x3db8647e	0.09003542
10	0xbdbfffd3	-0.093749665
11	0xbdba4098	-0.090943515
12	0xbd8894ef	-0.06669032
13	0xbdc56971	-0.09639252
14	0x3d9d4022	0.07678248
15	0x3c1e5a39	0.009665065
16	0x3c95f61e	0.018305834
17	0xbdf61f85	-0.120177306
18	0x3d9e7fa8	0.07739192
19	0x3d0d4ff9	0.034500096
20	0xbd9b0095	-0.075684704
21	0x3daeac4b	0.08528956
22	0xbd1a0533	-0.037602615
23	0xbd0dccc6	-0.034619115
24	0xbd4c4ab7	-0.04987594
25	0x3dbd58c5	0.09245447
26	0x3cda2570	0.02662918
27	0xbdc7de9a	-0.09759255
28	0x3dcee308	0.101018965
29	0xbd26c9e5	-0.040719885
30	0xbbe64968	-0.0070277937
31	0x3bed30b9	0.007238474

exp_avg f4 [64, 768]
0	0xb4bc6685	-3.5092322e-07
1	0xb4bd45ff	-3.5254922e-07
2	0x346d37c6	2.2092635e-07
3	0xb44eb9fa	-1.9252903e-07
4	0x34c26824	3.6211088e-07
5	0xb51fb833	-5.950016e-07
6	0x3504a748	4.941726e-07
7	0x35787a16	9.256486e-07
8	0xb4f46f69	-4.5529603e-07
9	0xb515f61a	-5.586495e-07
10	0x31a78abd	4.8761124e-09
11	0xb3fc7bbe	-1.1757173e-07
12	0x34f76cc7	4.608648e-07
13	0x3537c2a2	6.845604e-07
14	0x3403c99e	1.2273674e-07
15	0x350c811b	5.234194e-07
16	0x33937288	6.866054e-08
17	0x353e4bbc	7.0890724e-07
18	0x350762d2	5.043522e-07
19	0xb4f4aa12	-4.5572284e-07
20	0xb4a67eba	-3.1012115e-07
21	0xb51f2a98	-5.92941e-07
22	0x33e8760b	1.0824814e-07
23	0x34bba27d	3.494969e-07
24	0x34942486	2.7593723e-07
25	0xb38ac074	-6.461133e-08
26	0x34165620	1.4001171e-07
27	0xb41b0c9a	-1.4440084e-07
28	0x356d6df9	8.844941e-07
29	0x33eec72d	1.11189685e-07
30	0xb4214af5	-1.5021563e-07
31	0x333a88f1	4.3431047e-08
32	0xb55abbd3	-8.148465e-07
33	0xb4a961d7	-3.154989e-07
34	0xb1d2a3a8	-6.13041e-09
35	0xb520f8c4	-5.9966646e-07
36	0xb3d16f5d	-9.752578e-08
37	0xb484e244	-2.4751546e-07
38	0xb3141b5e	-3.4483826e-08
39	0xb33db049	-4.4165322e-08
40	0x3435cbdb	1.6931101e-07
41	0x33d359a6	9.84176e-08
42	0x34ec3b2c	4.400148e-07
43	0xb513d500	-5.5071723e-07
44	0xb50b07ad	-5.1792705e-07
45	0xb55de83e	-8.266687e-07
46	0xb6a1fe99	-4.827813e-06
47	0x33573838	5.010972e-08
48	0x34918aa2	2.7109223e-07
49	0xb4a24ca9	-3.023063e-07
50	0x35348bfe	6.725894e-07
51	0x34798272	2.3237388e-07
52	0xb40e9724	-1.3279765e-07
53	0x341f9175	1.4860946e-07
54	0x35377811	6.834753e-07
55	0x3510af81	5.389957e-07
56	0xb5a9b04b	-1.2642789e-06
57	0x35444ed8	7.313042e-07
58	0xb4abd39b	-3.2005195e-07
59	0xb43bf045	-1.7503142e-07
60	0x34d277ab	3.9202618e-07
61	0x344dc2ee	1.9163028e-07
62	0xb4365e2c	-1.698433e-07
63	0xb40b5e49	-1.2979685e-07
64	0x3453107f	1.9656908e-07
65	0x32690c83	1.356523e-08
66	0xb2c47e53	-2.2874849e-08
67	0x340d050c	1.3133484e-07
68	0x341fef47	1.4895078e-07
69	0x35849b76	9.880011e-07
70	0xb3bd9b81	-8.829284e-08
71	0xb4ccff4b	-3.818371e-07
72	0x33d04f34	9.700162e-08
73	0xb48dcb0b	-2.641103e-07
74	0xb3ca1379	-9.4099e-08
75	0xb3646255	-5.317482e-08
76	0xb3ecb9a6	-1.10233756e-07
77	0x34653b1e	2.1348794e-07
78	0xb4b66655	-3.3974598e-07
79	0x35014c13	4.816695e-07
80	0x3522e32a	6.068027e-07
81	0x34d5ddd8	3.9835754e-07
82	0x35201c58	5.964589e-07
83	0x34f45c09	4.5515506e-07
84	0x3357d02f	5.024793e-08
85	0x34b2ceb4	3.330548e-07
86	0xb3c48454	-9.1510316e-08
87	0xb43ca524	-1.7568942e-07
88	0xb41f18a4	-1.4816993e-07
89	0x34bc92ef	3.5124637e-07
90	0xb51c421c	-5.821073e-07
91	0xb4974e70	-2.8183013e-07
92	0xb4990620	-2.8502927e-07
93	0x3418faad	1.4247298e-07
94	0x35aa983d	1.2710294e-06
95	0xb4d4b88d	-3.9622356e-07
96	0x3384799b	6.168849e-08
97	0x34050c2d	1.239102e-07
98	0x348dd3b8	2.6417342e-07
99	0x3511f645	5.437508e-07
100	0x3502ccd1	4.872682e-07
101	0xb4f63908	-4.5862566e-07
102	0xb465951a	-2.138153e-07
103	0xb590f915	-1.0801328e-06
104	0xb483a872	-2.4523212e-07
105	0x349afce7	2.8868746e-07
106	0x34cd0a05	3.8191516e-07
107	0xb53bcae1	-6.9958156e-07
108	0x343711d8	1.7049695e-07
109	0xb666ec1b	-3.4410102e-06
110	0x34940c27	2.757599e-07
111	0x337355e9	5.665598e-08
112	0x3291281e	1.6898465e-08
113	0xb4ae6bc9	-3.248845e-07
114	0xb3a53bc3	-7.694282e-08
115	0x34ebc2aa	4.3913798e-07
116	0x351a9186	5.7581235e-07
117	0xb40d51de	-1.3161431e-07
118	0xb410ceda	-1.3486297e-07
119	0x354c7afa	7.6174877e-07
120	0xb3c0d2ef	-8.979065e-08
121	0x34eb7f89	4.3864955e-07
122	0xb48aa62a	-2.5825403e-07
123	0x33f57640	1.1430211e-07
124	0xb3b62d26	-8.483248e-08
125	0x350752c1	5.041184e-07
126	0xb4bad907	-3.4803108e-07
127	0xb455a198	-1.9895958e-07
128	0xb4360343	-1.6951257e-07
129	0x34d9b99a	4.0554443e-07
130	0x35468a05	7.396159e-07
131	0x341def1d	1.4708753e-07
132	0xb31b06bb	-3.609487e-08
133	0xb4859724	-2.488315e-07
134	0xb4aeab32	-3.2534587e-07
135	0x35112001	5.406328e-07
136	0x34773d00	2.3025859e-07
137	0xb4ec3b26	-4.4001462e-07
138	0xb50b9689	-5.200059e-07
139	0x34e848bf	4.3266297e-07
140	0xb383a7a9	-6.13066e-08
141	0xb2d61b85	-2.4925393e-08
142	0xb696e401	-4.4968915e-06
143	0x3532928d	6.6523427e-07
144	0x357b4ba4	9.361486e-07
145	0x32b2ed4d	2.082984e-08
146	0xb4a3574f	-3.042464e-07
147	0x33ca5833	9.422401e-08
148	0x33ea560e	1.09121274e-07
149	0xb350d8a7	-4.8625818e-08
150	0x3518dfcc	5.695008e-07
151	0xb461c0d1	-2.1024904e-07
152	0xb416612d	-1.4005191e-07
153	0xb473bbbb	-2.2699435e-07
154	0xb53c844f	-7.022799e-07
155	0x33b262f0	8.3067675e-08
156	0xb54731b6	-7.4205616e-07
157	0x34ec06ca	4.3963365e-07
158	0x34e5bba6	4.2791106e-07
159	0x33ac51a2	8.024223e-08
160	0x353b6bda	6.9819873e-07
161	0xb4d8f159	-4.040874e-07
162	0x3470b205	2.2416505e-07
163	0xb2a2caa2	-1.8951429e-08
164	0xb4a3de3e	-3.0522818e-07
165	0x34cdb702	3.831738e-07
166	0x3514e35f	5.5465165e-07
167	0x33226295	3.7808224e-08
168	0xb50e6649	-5.3047967e-07
169	0x33b44107	8.3937316e-08
170	0xb40fd7ac	-1.3396374e-07
171	0x3570be7f	8.9684175e-07
172	0x352af634	6.368821e-07
173	0xb4200868	-1.490422e-07
174	0xb2b16fdc	-2.065638e-08
175	0xb439235c	-1.7242331e-07
176	0xb3d1c264	-9.76768e-08
177	0x354a47c6	7.535531e-07
178	0x34917c87	2.709896e-07
179	0xb525eb1d	-6.1809425e-07
180	0xb45537de	-1.9857495e-07
181	0x3585ab18	9.959067e-07
182	0x33c9adb0	9.3913854e-08
183	0x33947ce3	6.914504e-08
184	0x3481d3c1	2.4182194e-07
185	0xb4598ee5	-2.0261685e-07
186	0x33cf13b5	9.642773e-08
187	0xb500b79a	-4.795089e-07
188	0xb4ae1314	-3.2423907e-07
189	0x33c4238c	9.133427e-08
190	0xb23802ca	-1.0710844e-08
191	0xb4a0cc08	-2.9950775e-07
192	0xb4f52ffb	-4.5669717e-07
193	0xb556999c	-7.9944743e-07
194	0x3510b30e	5.390474e-07
195	0x31aa2ab3	4.9525055e-09
196	0x34b81efb	3.4295212e-07
197	0xb571ea68	-9.01206e-07
198	0x340f539f	1.3348334e-07
199	0xb18e165c	-4.135286e-09
200	0xb46d7531	-2.2114979e-07
201	0xb46040c8	-2.0885193e-07
202	0x349d0f3a	2.9254608e-07
203	0x33859f38	6.222257e-08
204	0xb477659f	-2.3040637e-07
205	0x36ae036d	5.186003e-06
206	0x343c34b1	1.7528033e-07
207	0x33f3e461	1.1357111e-07
208	0x354fedea	7.745972e-07
209	0x34019baf	1.2070699e-07
210	0xb4a22a3b	-3.0205578e-07
211	0x34aa7261	3.174819e-07
212	0x34c8ae19	3.7379576e-07
213	0xb4bdb497	-3.533539e-07
214	0x329cb426	1.8242712e-08
215	0x349a13d9	2.8699176e-07
216	0x34d7f8e5	4.0227965e-07
217	0xb42ed297	-1.6281625e-07
218	0x316d8110	3.4561403e-09
219	0xb3bef725	-8.89252e-08
220	0x346185f9	2.1003497e-07
221	0x3445877c	1.8396344e-07
222	0xb15e0586	-3.2308392e-09
223	0x34d3a025	3.9418333e-07
224	0x34043852	1.2313947e-07
225	0x32a7cf15	1.9535529e-08
226	0xb3b1d4e1	-8.280927e-08
227	0xb45caef4	-2.0552744e-07
228	0x350cf26f	5.250685e-07
229	0xb60399a1	-1.9609945e-06
230	0xb489aa1a	-2.5642004e-07
231	0xb40fb709	-1.33845e-07
232	0xb31cbdf7	-3.6494352e-08
233	0x348cf462	2.6254844e-07
234	0xb436f0f6	-1.7037732e-07
235	0xb317ec13	-3.5372135e-08
236	0x34a41c1e	3.0567838e-07
237	0x332a4801	3.9646697e-08
238	0x349e501b	2.9488078e-07
239	0x34bb6a62	3.4908868e-07
240	0xb35d4fa2	-5.1527998e-08
241	0x34c1f86c	3.6129802e-07
242	0xb2860aea	-1.5604616e-08
243	0x34ae7b99	3.2499955e-07
244	0xb4f7c643	-4.615159e-07
245	0x3531deb4	6.6261714e-07
246	0x346e26e4	2.2179626e-07
247	0xb4b3495f	-3.3394733e-07
248	0x34bc976f	3.512791e-07
249	0xb5405931	-7.1655364e-07
250	0x348bfb5f	2.6073664e-07
251	0x33f79944	1.1529713e-07
252	0x34864544	2.5009842e-07
253	0x340e9a67	1.3280952e-07
254	0x350e0bd8	5.291636e-07
255	0xb4a029cb	-2.983273e-07

exp_avg_sq f4 [64, 768]
0	0x2cee8ca1	6.77998e-12
1	0x2ee6a837	1.048907e-10
2	0x2c8c3af9	3.9855866e-12
3	0x2e271e65	3.79984e-11
4	0x2c59ca4e	3.0949856e-12
5	0x2f448e44	1.7876639e-10
6	0x2fa7003a	3.0377284e-10
7	0x2f8fc7de	2.6153563e-10
8	0x2e6ea5ed	5.4262306e-11
9	0x2e8c06cd	6.367671e-11
10	0x2b4ca0a8	7.2698314e-13
11	0x2d524c7f	1.19541035e-11
12	0x2c9b45d6	4.4131183e-12
13	0x3033a58d	6.535508e-10
14	0x2ccda389	5.8446065e-12
15	0x2f84ab97	2.4132582e-10
16	0x2ce40b51	6.481406e-12
17	0x2f887874	2.4823843e-10
18	0x2e98f29c	6.955256e-11
19	0x2e3eff30	4.342765e-11
20	0x2df5a2e9	2.7925622e-11
21	0x2f2bf52e	1.5639465e-10
22	0x2f128a96	1.3327858e-10
23	0x2f02f1fc	1.1909401e-10
24	0x2f489099	1.8241265e-10
25	0x2c363183	2.589124e-12
26	0x2b1f260d	5.6540954e-13
27	0x2da54804	1.879031e-11
28	0x2d96e6c1	1.7155501e-11
29	0x2a496022	1.7885739e-13
30	0x2d899d1f	1.5644873e-11
31	0x2b9c5eb3	1.1110751e-12
32	0x2f342734	1.6384832e-10
33	0x2f97513d	2.7524463e-10
34	0x2e1d838d	3.5814508e-11
35	0x2f9be4f1	2.8357008e-10
36	0x2d07a2e3	7.71003e-12
37	0x2d76ab23	1.4021481e-11
38	0x2d0383b4	7.475732e-12
39	0x2d016ce8	7.356983e-12
40	0x2c578b7f	3.0630774e-12
41	0x2ead745e	7.8878e-11
42	0x2d22f42d	9.262852e-12
43	0x2f301ed4	1.6018059e-10
44	0x2e9d2c04	7.147352e-11
45	0x2f4d3b02	1.8665605e-10
46	0x32e5c80e	2.6750083e-08
47	0x2b75520a	8.7155337e-13
48	0x2ee6c980	1.0494983e-10
49	0x2e13d8a8	3.361636e-11
50	0x2fe6e0d7	4.1996515e-10
51	0x2d58aa64	1.2316013e-11
52	0x2cbb1e4b	5.318223e-12
53	0x2f5a67cb	1.9863859e-10
54	0x3006b01a	4.899917e-10
55	0x2fbb0d99	3.4024764e-10
56	0x2fa7fa73	3.0555078e-10
57	0x2f7fc966	2.3263666e-10
58	0x2bac5a86	1.224646e-12
59	0x2ec800cf	9.0950907e-11
60	0x2f6247d3	2.0580097e-10
61	0x2df76499	2.8125323e-11
62	0x2e6653ed	5.2370486e-11
63	0x2ddf0d6f	2.535813e-11
64	0x2e0acd5c	3.1559963e-11
65	0x2b931f15	1.0453605e-12
66	0x2e03c877	2.9964e-11
67	0x2f14894a	1.3509296e-10
68	0x2f298f1d	1.5421305e-10
69	0x304ae742	7.381581e-10
70	0x2f1ef324	1.4456397e-10
71	0x2eff7cab	1.1618203e-10
72	0x2de00698	2.546878e-11
73	0x2e85bc77	6.081618e-11
74	0x2cca9ee6	5.7588266e-12
75	0x2e68b463	5.291091e-11
76	0x2e504713	4.735685e-11
77	0x2f234a42	1.4851145e-10
78	0x2f76fa7f	2.2462564e-10
79	0x2d18c82d	8.684648e-12
80	0x2ef72e59	1.12404926e-10
81	0x2f9a5525	2.8072936e-10
82	0x2fbe54ec	3.462114e-10
83	0x2ebac0cc	8.492548e-11
84	0x2e1df8d1	3.591866e-11
85	0x2e0c71d4	3.1933414e-11
86	0x2e3a4467	4.2352257e-11
87	0x2b94970e	1.0557959e-12
88	0x2f0a51c0	1.258007e-10
89	0x2fd20b0a	3.820662e-10
90	0x2fea8b3a	4.2663278e-10
91	0x2e447c05	4.4675392e-11
92	0x2c968e8d	4.2790827e-12
93	0x2dcac6d6	2.3053042e-11
94	0x3051fd4e	7.6393725e-10
95	0x2fe6feb9	4.2017748e-10
96	0x2dd85d7f	2.4597878e-11
97	0x2c1fe093	2.2719923e-12
98	0x2f0a809b	1.2596717e-10
99	0x2f904b22	2.6246832e-10
100	0x2f817fe0	2.3555824e-10
101	0x2d83f1f2	1.5000421e-11
102	0x2da038d0	1.8215124e-11
103	0x30e4175c	1.6595822e-09
104	0x2cd6dddb	6.1068767e-12
105	0x2ca1f308	4.602877e-12
106	0x2e9683d2	6.844626e-11
107	0x2f870167	2.4557353e-10
108	0x2bc0e259	1.3705245e-12
109	0x3230d1c2	1.0292242e-08
110	0x2ed6754b	9.752429e-11
111	0x2fd042ef	3.788254e-10
112	0x2b70f152	8.560003e-13
113	0x2fe8fe8f	4.238143e-10
114	0x2e7a3f5a	5.6899686e-11
115	0x2f0b6485	1.2677688e-10
116	0x2e40c0f5	4.3827126e-11
117	0x2f0fb5ec	1.3070406e-10
118	0x2d2ef236	9.9445365e-12
119	0x2f850aa5	2.4200122e-10
120	0x2d5fa5be	1.27128846e-11
121	0x2e7e3541	5.7800213e-11
122	0x2f28a477	1.533794e-10
123	0x2d40a805	1.0951244e-11
124	0x2d689f27	1.3223012e-11
125	0x300f84e7	5.221196e-10
126	0x2c3bf09c	2.6707863e-12
127	0x2f1df34f	1.4365507e-10
128	0x2e6101bb	5.1160614e-11
129	0x2fbfa960	3.4863046e-10
130	0x3077afa2	9.0107666e-10
131	0x2fb8e27c	3.3630332e-10
132	0x2d921e9c	1.6611872e-11
133	0x2e916375	6.611504e-11
134	0x2eebcc2f	1.0722833e-10
135	0x2faef0e7	3.1821587e-10
136	0x2ea6a84a	7.5787e-11
137	0x2cb77ab2	5.2147947e-12
138	0x2e874dff	6.152944e-11
139	0x2d44e227	1.1191526e-11
140	0x2f502e67	1.8933975e-10
141	0x2f53ffa3	1.9281159e-10
142	0x32c43425	2.2841116e-08
143	0x306d6aef	8.637206e-10
144	0x30ac733d	1.25474e-09
145	0x2e8408c2	6.004221e-11
146	0x2b8ecb5b	1.0146149e-12
147	0x2e32f8d7	4.069353e-11
148	0x2daa2613	1.934367e-11
149	0x2b715eb3	8.575182e-13
150	0x2c81b5b2	3.6865727e-12
151	0x2c74d1cf	3.4790953e-12
152	0x2ef67ead	1.1209287e-10
153	0x2ec61bb8	9.0089214e-11
154	0x2ebcf7ca	8.5932664e-11
155	0x2e7312ad	5.526839e-11
156	0x2e9fd1c1	7.267743e-11
157	0x2e41b947	4.404768e-11
158	0x2e4cd25c	4.6571066e-11
159	0x2d946900	1.6872281e-11
160	0x3023bdf1	5.956898e-10
161	0x2da5f80d	1.8868485e-11
162	0x2e6a6543	5.329538e-11
163	0x2e1ca1e7	3.561409e-11
164	0x2e946b77	6.7493504e-11
165	0x2e81ef75	5.908777e-11
166	0x2f0071e3	1.1681993e-10
167	0x2d97b869	1.7248607e-11
168	0x2e1be729	3.544823e-11
169	0x2d7b0b93	1.4270268e-11
170	0x2c4543be	2.8032988e-12
171	0x2f869f67	2.448772e-10
172	0x305cbf10	8.030705e-10
173	0x2f6bafc6	2.1435573e-10
174	0x2f5b4224	1.9941432e-10
175	0x2a71994c	2.1458285e-13
176	0x2e76004d	5.593419e-11
177	0x2fe1ef61	4.109735e-10
178	0x2e2c0c1a	3.911902e-11
179	0x2ec3398c	8.877796e-11
180	0x3000487e	4.6669146e-10
181	0x3096542e	1.0937862e-09
182	0x2adf0fac	3.9623632e-13
183	0x2e22ef8f	3.7047306e-11
184	0x2de67987	2.6201942e-11
185	0x2dde97da	2.5305914e-11
186	0x2f12c6c9	1.3349245e-10
187	0x2f570347	1.95553e-10
188	0x2e8ab497	6.3075926e-11
189	0x2d3a3483	1.0584536e-11
190	0x2e80dcbd	5.859977e-11
191	0x2ef9f0a3	1.1365955e-10
192	0x2eaf1de4	7.963388e-11
193	0x2e949564	6.756798e-11
194	0x3032a761	6.499388e-10
195	0x2b2da2be	6.1687797e-13
196	0x2dc6f79f	2.261996e-11
197	0x2ff62277	4.4771628e-10
198	0x2e342506	4.0960145e-11
199	0x2e18f49f	3.4778066e-11
200	0x2f699301	2.1243453e-10
201	0x2a50b857	1.8538067e-13
202	0x2e3dc90a	4.3152183e-11
203	0x2e41a0f5	4.4026078e-11
204	0x2f7a5e07	2.2770773e-10
205	0x330896cd	3.180212e-08
206	0x2b9acede	1.0999775e-12
207	0x2d802fa9	1.457308e-11
208	0x2f2a149f	1.5468736e-10
209	0x2f61c2a3	2.053278e-10
210	0x2a99e728	2.7338657e-13
211	0x2e2953cc	3.8500578e-11
212	0x2a220b4c	1.439241e-13
213	0x2ea2474f	7.379574e-11
214	0x2e31f816	4.0465485e-11
215	0x2ec0cae9	8.767193e-11
216	0x2f3a209e	1.692819e-10
217	0x2f0e646e	1.2950505e-10
218	0x2de22747	2.5710668e-11
219	0x2d9069c8	1.6417881e-11
220	0x2ea9449e	7.697419e-11
221	0x2e67b6d6	5.268571e-11
222	0x2d6a57a7	1.3320823e-11
223	0x2d278ea0	9.52452e-12
224	0x2ed66ec9	9.751273e-11
225	0x2fa3de69	2.980756e-10
226	0x2edd18df	1.00543344e-10
227	0x2e9f81d9	7.2535485e-11
228	0x30095cf2	4.9972393e-10
229	0x31bc127b	5.473621e-09
230	0x2ca48e1c	4.6769377e-12
231	0x2f0251db	1.1852512e-10
232	0x2ede7ca3	1.0117531e-10
233	0x2fe68f0f	4.1938406e-10
234	0x2fbb6372	3.4085762e-10
235	0x2d943b6f	1.6852046e-11
236	0x2c9ced8f	4.460161e-12
237	0x2e5f1b5c	5.072863e-11
238	0x2a5b341b	1.9469185e-13
239	0x2ba84189	1.1955308e-12
240	0x2e4277db	4.4216946e-11
241	0x2f209556	1.460497e-10
242	0x2ed73331	9.7861615e-11
243	0x2f7ec130	2.31698e-10
244	0x2f11099f	1.3191091e-10
245	0x2f3098b2	1.6061355e-10
246	0x2f1028e9	1.3111258e-10
247	0x2e6759ba	5.2603012e-11
248	0x2bb64353	1.2950564e-12
249	0x2eadd5a3	7.905079e-11
250	0x2e2e3489	3.960968e-11
251	0x2e48d593	4.5664427e-11
252	0x2db08c7e	2.0071275e-11
253	0x2e9d1715	7.1436336e-11
254	0x3002608e	4.7430937e-10
255	0x2f3d009e	1.7189669e-10

exp_avg f4 [64]
0	0x35da0935	1.6244945e-06
1	0xb7068ec2	-8.020261e-06
2	0x3716bf50	8.98524e-06
3	0xbaa42093	-0.0012521915
4	0xb6130ebe	-2.1913288e-06
5	0xba9b74fc	-0.0011860426
6	0x3917127c	0.00014407368
7	0x35157b54	5.568629e-07
8	0xb7598420	-1.2964971e-05
9	0xb863cdf0	-5.431281e-05
10	0x3728dd8c	1.0065163e-05
11	0xb89aedf9	-7.387618e-05
12	0x339a9b1b	7.199397e-08
13	0xb62174bd	-2.405882e-06
14	0xbab8c08d	-0.001409547
15	0x3ad5237c	0.0016261186
16	0xb6fd0608	-7.5406897e-06
17	0x39106431	0.00013770234
18	0xb9f935a1	-0.00047532938
19	0x3ad40353	0.0016175307
20	0xb514fe27	-5.5504137e-07
21	0xba05a7fa	-0.0005098578
22	0xba4c579f	-0.0007795039
23	0xb8eec2d7	-0.00011385016
24	0xb78f6396	-1.7093302e-05
25	0x38999353	7.32305e-05
26	0x3a8b5e5c	0.001063298
27	0x36abed33	5.1238108e-06
28	0xb928518f	-0.00016052111
29	0xba03bba0	-0.0005025212
30	0x36b23a76	5.311619e-06
31	0xb76b3c0f	-1.4021075e-05
32	0xb7352e58	-1.0799231e-05
33	0xba219efa	-0.0006165352
34	0xba12a166	-0.0005593508
35	0xb5c749fc	-1.4848188e-06
36	0x360663b4	2.002559e-06
37	0xb6dbfa0b	-6.5558174e-06
38	0x3aaf7115	0.0013385142
39	0xba00d956	-0.0004915198
40	0xb6fd75bf	-7.553695e-06
41	0x370f2aaa	8.533398e-06
42	0xb70c24d2	-8.353223e-06
43	0xb9597156	-0.00020736954
44	0xbad29351	-0.0016065632
45	0x373a7807	1.111441e-05
46	0xb9f7f1b8	-0.00047291606
47	0x3775c974	1.4650042e-05
48	0xb67b6761	-3.746209e-06
49	0xba825902	-0.0009944739
50	0xb64b2491	-3.0270642e-06
51	0x34a4e112	3.071114e-07
52	0xb6a482d6	-4.902812e-06
53	0xb9ea7897	-0.00044721804
54	0x3a079d75	0.0005173304
55	0x39a04a75	0.00030573053
56	0x39983397	0.00029030137
57	0x37274d07	9.97191e-06
58	0x3a4b1255	0.0007746567
59	0xb86c3cbf	-5.632336e-05
60	0x363bfa57	2.8010888e-06
61	0x3a294f71	0.0006458676
62	0x39f2703c	0.00046241458
63	0xb517a5a7	-5.649294e-07

exp_avg_sq f4 [64]
0	0x3141e215	2.821371e-09
1	0x2f41d8d5	1.7630282e-10
2	0x3019a0fe	5.588986e-10
3	0x3687cc1c	4.047075e-06
4	0x2db92e55	2.105264e-11
5	0x3658fe8f	3.233468e-06
6	0x3581641a	9.640382e-07
7	0x311576e3	2.1749933e-09
8	0x30005a44	4.6694404e-10
9	0x351d5eef	5.8625204e-07
10	0x32366306	1.061631e-08
11	0x332e6c9d	4.0611315e-08
12	0x2ed53e05	9.6971355e-11
13	0x30621b32	8.225697e-10
14	0x36928125	4.3661735e-06
15	0x36ceec92	6.166819e-06
16	0x2f2cae0b	1.5705141e-10
17	0x33d34399	9.837749e-08
18	0x354c02ea	7.600016e-07
19	0x36b30770	5.3354815e-06
20	0x2f3a2140	1.6928414e-10
21	0x354bd989	7.593995e-07
22	0x360b1cdb	2.072941e-06
23	0x342a334b	1.5851144e-07
24	0x306ba374	8.5724783e-10
25	0x358b7eac	1.0393173e-06
26	0x36453580	2.9386429e-06
27	0x3076ba16	8.975872e-10
28	0x35a5a66f	1.2341897e-06
29	0x353b195c	6.969983e-07
30	0x32f1051a	2.8058412e-08
31	0x339abc80	7.205472e-08
32	0x3062ed1c	8.2555274e-10
33	0x357edaa5	9.4940543e-07
34	0x358bc671	1.0414061e-06
35	0x30b06b81	1.283624e-09
36	0x30c75a8d	1.4504892e-09
37	0x30a621b5	1.208767e-09
38	0x36452fc3	2.9383089e-06
39	0x35c5cf37	1.4737951e-06
40	0x2f5b4d09	1.9945302e-10
41	0x30904412	1.0496726e-09
42	0x2f91692a	2.645007e-10
43	0x355835bf	8.054448e-07
44	0x36baad3f	5.5634005e-06
45	0x31df367c	6.4963483e-09
46	0x35363d4e	6.7889493e-07
47	0x309f8d11	1.1608866e-09
48	0x328ae488	1.6169238e-08
49	0x35b17480	1.3221434e-06
50	0x330d1aa0	3.2853336e-08
51	0x33061df1	3.1226538e-08
52	0x32694b8d	1.3579563e-08
53	0x353da5c7	7.0649224e-07
54	0x35391390	6.894634e-07
55	0x3526ba86	6.2111246e-07
56	0x3566a9ba	8.592866e-07
57	0x2f8dc0be	2.5784702e-10
58	0x35b648c8	1.3581239e-06
59	0x33100d66	3.35398e-08
60	0x318865bd	3.9696872e-09
61	0x3591d8c0	1.0866424e-06
62	0x355077b8	7.766025e-07
63	0x33a6182f	7.734376e-08

exp_avg f4 [32, 64]
0	0xb8bd82fb	-9.036619e-05
1	0xb9517352	-0.00019974753
2	0xb8c0b381	-9.188709e-05
3	0x3ca86d82	0.02056003
4	0xb55b29d6	-8.1644737e-07
5	0x3c8bf882	0.017086271
6	0x3cbc2707	0.022967828
7	0xb8c2dadb	-9.291406e-05
8	0xb94cf444	-0.00019545952
9	0x3ccf2fcb	0.025291344
10	0xb8b1d093	-8.478868e-05
11	0x3cbf2546	0.023333203
12	0xb98b7b51	-0.00026604024
13	0xb8146172	-3.5376703e-05
14	0x3ca0bb7e	0.019620653
15	0xba1a57d6	-0.00058877224
16	0xb95215ae	-0.00020035237
17	0x3ca2b7b6	0.01986299
18	0x3cc76285	0.02433897
19	0x38c400ba	9.3461436e-05
20	0xb9835f69	-0.00025057353
21	0x3cb718eb	0.022350749
22	0x3cedc99a	0.029026795
23	0x3cbccc77	0.023046715
24	0xb86c4f57	-5.6340676e-05
25	0x3ccccbc5	0.024999509
26	0x3c721bc7	0.01477713
27	0xb908d645	-0.00013049792
28	0x3ce8843e	0.02838337
29	0x3cd2ed56	0.025747936
30	0xb8d71fd0	-0.000102579244
31	0x3cd829cb	0.026387116
32	0xb62919d0	-2.5197987e-06
33	0x3c98c5ef	0.01864907
34	0x3c9a2eb8	0.018821105
35	0xb8987e07	-7.271399e-05
36	0xb8df8ed1	-0.0001066007
37	0xb8963891	-7.163094e-05
38	0xbbd884dd	-0.0066076354
39	0x3cda9029	0.026680069
40	0xb9649b23	-0.00021801567
41	0xb8f31503	-0.00011591057
42	0xb970d3b4	-0.00022967049
43	0x3ce3e618	0.027819678
44	0x3c8703d2	0.016481314
45	0xb8cbcd59	-9.718043e-05
46	0x3cb3acb7	0.021932943
47	0xb8b31ba7	-8.540536e-05
48	0x35d57451	1.5903589e-06
49	0x3c57d766	0.013173914
50	0xb8a4dffe	-7.861851e-05
51	0xb8d48aff	-0.00010134838
52	0x378cd609	1.6788968e-05
53	0x3cd11b84	0.025525816
54	0x3c9bbfbd	0.019012326
55	0x3c969aee	0.018384423
56	0x3c8cc585	0.017184028
57	0xb955f6c7	-0.00020405195
58	0x3bd155b2	0.0063883895
59	0x3c61aff2	0.013774859
60	0xb8d0e59e	-9.9609824e-05
61	0x3c9b82e8	0.01898332
62	0x3c9cb588	0.01912953
63	0xb8b9b35b	-8.854895e-05
64	0x38be3b1f	9.070918e-05
65	0x3952ab9f	0.00020091094
66	0x38c11035	9.205976e-05
67	0xbca8c953	-0.020603811
68	0x35875b7e	1.0084912e-06
69	0xbc8c35a7	-0.017115427
70	0xbcbcf77f	-0.023067234
71	0x38c39297	9.325629e-05
72	0x394e2507	0.00019659485
73	0xbccffa74	-0.02538798
74	0x38b25cea	8.505008e-05
75	0xbcbfc610	-0.023409873
76	0x398c0850	0.00026709074
77	0x3815244d	3.5558176e-05
78	0xbca1054c	-0.019655846
79	0x3a0e6b7b	0.0005432886
80	0x39535425	0.00020153874
81	0xbca38184	-0.019959219
82	0xbcc7f3fb	-0.024408331
83	0xb9065554	-0.00012811023
84	0x3983eb48	0.00025161565
85	0xbcb79070	-0.02240774
86	0xbcee7bd1	-0.029111775
87	0xbcbd6f25	-0.023124287
88	0x386e9966	5.6886485e-05
89	0xbccda37f	-0.025102375
90	0xbc73bae0	-0.014876097
91	0x39094bf5	0.00013093634
92	0xbce959d1	-0.02848521
93	0xbcd382cf	-0.02581921
94	0x38d7e956	0.00010295461
95	0xbcd900c1	-0.026489617
96	0x3636415f	2.7158164e-06
97	0xbc991ad6	-0.018689554
98	0xbc9a93e6	-0.018869352
99	0x38993949	7.306279e-05
100	0x38e05a67	0.00010697991
101	0x3897224a	7.206628e-05
102	0x3bd7edef	0.006589643
103	0xbcdb4eca	-0.026770968
104	0x3965caa7	0.00021914636
105	0x38f3a400	0.0001161769
106	0x3972149f	0.000230866
107	0xbce4b29c	-0.027917199
108	0xbc872cb4	-0.016500808
109	0x38cc5e12	9.745e-05
110	0xbcb423ae	-0.02198967
111	0x38b36741	8.554618e-05
112	0xb5d43d2d	-1.5813035e-06
113	0xbc5812b9	-0.013188058
114	0x38a59919	7.89633e-05
115	0x38d5581d	0.00010173044
116	0xb78b837a	-1.6631315e-05
117	0xbcd1bb72	-0.025602076
118	0xbc9ca992	-0.019123826
119	0xbc976031	-0.018478485
120	0xbc8d723c	-0.017266385
121	0x39566933	0.0002044782
122	0xbbd38e3e	-0.0064561656
123	0xbc626e46	-0.013820237
124	0x38d1abd4	9.997902e-05
125	0xbc9c72a0	-0.019097626
126	0xbc9d8b87	-0.01923157
127	0x38ba7184	8.890315e-05
128	0xb214690e	-8.6386205e-09
129	0xb300615d	-2.9890874e-08
130	0xb195a56b	-4.3552766e-09
131	0x3590462c	1.0749259e-06
132	0xb1b297db	-5.197746e-09
133	0x354087ec	7.1723366e-07
134	0x3629a313	2.5277884e-06
135	0xb215620d	-8.695236e-09
136	0xb2f9b406	-2.906928e-08
137	0x362581c5	2.4662452e-06
138	0xb1e6f76b	-6.722009e-09
139	0x36019f89	1.931536e-06
140	0xb2e5bbcc	-2.6744509e-08
141	0xb1a024ba	-4.660788e-09
142	0x356973c9	8.6967754e-07
143	0x35a0061d	1.1922708e-06
144	0xb3035907	-3.0581784e-08
145	0x3625cf70	2.470766e-06
146	0x35e91e41	1.7368658e-06
147	0x35746a03	9.105135e-07
148	0xb2e44ae5	-2.6576751e-08
149	0x35c035b9	1.432075e-06
150	0x360f145e	2.1320516e-06
151	0x3604be57	1.9780325e-06
152	0xb272eafe	-1.4139685e-08
153	0x362fdaf1	2.6204473e-06
154	0x362a3df8	2.5368045e-06
155	0xb23d02fd	-1.1001927e-08
156	0x362dbf2c	2.5890286e-06
157	0x35f0510d	1.7904982e-06
158	0xb2224bf6	-9.446913e-09
159	0x362e772e	2.5997392e-06
160	0xb1b48022	-5.2532565e-09
161	0x3585e8ae	9.976991e-07
162	0x35a36acd	1.217553e-06
163	0xb215d18d	-8.720588e-09
164	0xb226551f	-9.681826e-09
165	0xb2403e02	-1.118997e-08
166	0x350adf5b	5.173403e-07
167	0x3619bade	2.2907548e-06
168	0xb2f7baa8	-2.8839466e-08
169	0xb1ecd619	-6.892844e-09
170	0xb303c9d0	-3.068436e-08
171	0x3625ea2b	2.472322e-06
172	0x34fd7c21	4.7215238e-07
173	0xb1f0644f	-6.996323e-09
174	0x35bfa4e8	1.4278603e-06
175	0xb1694568	-3.3945415e-09
176	0xb13461dc	-2.6249074e-09
177	0x34b69817	3.4010802e-07
178	0xb2177abd	-8.817264e-09
179	0xb227a26c	-9.75761e-09
180	0xb187ef56	-3.9562265e-09
181	0x360051ff	1.9121214e-06
182	0x363f23e1	2.8482102e-06
183	0x3621cec9	2.4111234e-06
184	0x360e3076	2.1187857e-06
185	0xb2367b9f	-1.06219025e-08
186	0x35ed2c29	1.7670728e-06
187	0x359a1cd8	1.1482289e-06
188	0xb2220960	-9.431773e-09
189	0x36462def	2.9531036e-06
190	0x36308aba	2.6306793e-06
191	0xb21cbcf2	-9.123356e-09
192	0xb28c2035	-1.6312791e-08
193	0xb37e34ce	-5.918701e-08
194	0xb1f6e6b9	-7.1857724e-09
195	0x35f82e19	1.8490856e-06
196	0xb2378473	-1.0682117e-08
197	0x359945dc	1.141972e-06
198	0x36a37ac4	4.8720703e-06
199	0xb28ddd89	-1.6515303e-08
200	0xb376a7bb	-5.742889e-08
201	0x369e2c30	4.713911e-06
202	0xb2576cc9	-1.2539382e-08
203	0x367191ab	3.5996588e-06
204	0xb35b3325	-5.1036427e-08
205	0xb21f19df	-9.2609005e-09
206	0x35c0f856	1.437739e-06
207	0x36290c38	2.5190075e-06
208	0xb381bd4f	-6.0414656e-08
209	0x36a158f2	4.8085285e-06
210	0x36531995	3.145634e-06
211	0x36045a37	1.9722045e-06
212	0xb35a7476	-5.0863e-08
213	0x362c29f1	2.565441e-06
214	0x36836282	3.915572e-06
215	0x3678c355	3.7068578e-06
216	0xb2f572ef	-2.857402e-08
217	0x36a8f17a	5.0349017e-06
218	0x36aa0b5b	5.0677168e-06
219	0xb2ae15fe	-2.0266267e-08
220	0x36a429e6	4.8924585e-06
221	0x36596846	3.2396215e-06
222	0xb2997381	-1.786407e-08
223	0x36a62eed	4.9526484e-06
224	0xb23986c0	-1.0799056e-08
225	0x35e5b389	1.7114081e-06
226	0x3611fb31	2.1752896e-06
227	0xb28fbacb	-1.6732335e-08
228	0xb29c09dd	-1.8165276e-08
229	0xb2bd7ba2	-2.2058718e-08
230	0x35a1acbc	1.2045707e-06
231	0x368f4d9c	4.270767e-06
232	0xb372ba0b	-5.651422e-08
233	0xb24f4f61	-1.20670345e-08
234	0xb381640f	-6.025231e-08
235	0x369ca84e	4.6687555e-06
236	0x35367e5f	6.798418e-07
237	0xb25bfa2b	-1.2804359e-08
238	0x362b41ff	2.55194e-06
239	0xb1b9bbd2	-5.4055613e-09
240	0xb1c5f732	-5.7615575e-09
241	0x34f691a1	4.592703e-07
242	0xb2907d1d	-1.6820701e-08
243	0xb29f0831	-1.8513761e-08
244	0xb212640d	-8.521067e-09
245	0x366b039d	3.5019832e-06
246	0x36bda73e	5.6521085e-06
247	0x369dd464	4.70369e-06
248	0x368ac070	4.135123e-06
249	0xb29cdc0b	-1.8260854e-08
250	0x36718e23	3.5994533e-06
251	0x360e33f8	2.1189899e-06
252	0xb299f3aa	-1.792235e-08
253	0x36c4b817	5.862686e-06
254	0x36ad9122	5.1726975e-06
255	0xb295d00b	-1.744049e-08

exp_avg_sq f4 [32, 64]
0	0x32dc274f	2.5629246e-08
1	0x3497b04e	2.825422e-07
2	0x3207107e	7.861784e-09
3	0x39f09e8d	0.00045894497
4	0x323cac63	1.09822365e-08
5	0x396bc164	0.0002248339
6	0x3b075e1d	0.002065546
7	0x3308f31c	3.1886074e-08
8	0x348dfb6c	2.644623e-07
9	0x3b008c65	0.0019614932
10	0x33153769	3.474216e-08
11	0x3abd97fb	0.0014464849
12	0x34767e8b	2.2956571e-07
13	0x326e53b5	1.3872456e-08
14	0x3985071a	0.00025373028
15	0x39e4fe5c	0.0004367706
16	0x349b0b18	2.8879072e-07
17	0x3b078571	0.0020678903
18	0x3a87d733	0.0010363817
19	0x393c42a1	0.00017953898
20	0x346d7bf1	2.2117435e-07
21	0x3a4119ba	0.0007366199
22	0x3acebc50	0.0015772674
23	0x3ab0dba6	0.0013493195
24	0x33820def	6.056131e-08
25	0x3b11f481	0.002227098
26	0x3b0597f5	0.0020384763
27	0x33329bcf	4.158556e-08
28	0x3b0cd9a4	0.0021492029
29	0x3a926d36	0.0011171463
30	0x33a78433	7.8005904e-08
31	0x3b1614ce	0.0022900584
32	0x324a40aa	1.177265e-08
33	0x39cd0f75	0.00039112163
34	0x3a08a544	0.0005212615
35	0x330cfd3d	3.282661e-08
36	0x33060c2a	3.121037e-08
37	0x332c1090	4.0061934e-08
38	0x3864ab2a	5.4518845e-05
39	0x3ae7f553	0.0017697014
40	0x348eb21c	2.6579153e-07
41	0x32940522	1.7231802e-08
42	0x349e79c7	2.9518398e-07
43	0x3b024809	0.0019879362
44	0x3900dffe	0.00012290475
45	0x32d70dc4	2.5035554e-08
46	0x3a438995	0.0007459161
47	0x31a4345c	4.7789808e-09
48	0x366532f3	3.4153315e-06
49	0x38ac36e6	8.211825e-05
50	0x33196176	3.571173e-08
51	0x33b2dfb7	8.3294644e-08
52	0x33a61e5e	7.735501e-08
53	0x3aa613af	0.0012670661
54	0x3b2bd231	0.0026217813
55	0x3af4bf27	0.001867269
56	0x3ab89e65	0.0014085291
57	0x33422768	4.5204985e-08
58	0x3a80eda2	0.0009836445
59	0x3a17e3b7	0.0005794125
60	0x32ff4f1e	2.9721885e-08
61	0x3b35a4d5	0.0027716656
62	0x3b0fcfd5	0.0021943946
63	0x3340d5d2	4.4897952e-08
64	0x32d36e7b	2.4613874e-08
65	0x3494d6fc	2.772357e-07
66	0x320168f3	7.532651e-09
67	0x39e0b87e	0.00042862067
68	0x3231e9e5	1.0355937e-08
69	0x39559bbe	0.00020371281
70	0x3b043bb3	0.0020177185
71	0x335a375e	5.0807436e-08
72	0x348c0d2a	2.608661e-07
73	0x3afaf70a	0.001914711
74	0x33d8c04b	1.0093262e-07
75	0x3ab6ccda	0.0013946549
76	0x34711997	2.2454184e-07
77	0x3203cfd7	7.672461e-09
78	0x3983ffc0	0.00025176816
79	0x39e4f233	0.00043668
80	0x3498c45e	2.8455082e-07
81	0x3b0449d8	0.0020185616
82	0x3a83d303	0.0010057393
83	0x393c37cd	0.00017949865
84	0x34684de4	2.163502e-07
85	0x3a39e327	0.0007091038
86	0x3ac84449	0.001527914
87	0x3aabcfe3	0.001310822
88	0x3381186f	6.011475e-08
89	0x3b0e9236	0.002175463
90	0x3b03a173	0.0020085245
91	0x332cfe30	4.0278053e-08
92	0x3b09e475	0.0021040712
93	0x3a8d24eb	0.0010768449
94	0x34365353	1.6980384e-07
95	0x3b12be1b	0.0022391144
96	0x323744b5	1.0667624e-08
97	0x39c0ddb6	0.0003678628
98	0x3a04db69	0.0005068095
99	0x3352afd3	4.9054346e-08
100	0x33049fe2	3.0879058e-08
101	0x3329a7ae	3.9500883e-08
102	0x38648e71	5.4492095e-05
103	0x3ae0d517	0.001715335
104	0x348bebcd	2.6062335e-07
105	0x3291dfe7	1.698204e-08
106	0x349b52f2	2.893135e-07
107	0x3afe781e	0.001941446
108	0x38e68bcc	0.00010993294
109	0x32f46806	2.8452643e-08
110	0x3a3a6f25	0.0007111899
111	0x31a73850	4.8667417e-09
112	0x35e5079d	1.7064045e-06
113	0x38843e95	6.305907e-05
114	0x338a370c	6.436139e-08
115	0x34221c7c	1.5097788e-07
116	0x33a65d4d	7.746949e-08
117	0x3aa0ca09	0.0012267242
118	0x3b2855ec	0.002568598
119	0x3aef69ff	0.0018265842
120	0x3ab5a9fe	0.0013859866
121	0x33353be6	4.2196824e-08
122	0x3a800cc9	0.0009769435
123	0x3a102146	0.0005498122
124	0x32f8129c	2.8879462e-08
125	0x3b324e86	0.0027207448
126	0x3b0d4a9d	0.0021559366
127	0x3391bddc	6.786624e-08
128	0x2b2a1331	6.0422766e-13
129	0x2a6c3d2f	2.0982238e-13
130	0x2a238052	1.4521828e-13
131	0x3106c01d	1.960877e-09
132	0x2c3c0373	2.6718322e-12
133	0x308cc3e9	1.0242022e-09
134	0x30eceb6b	1.723817e-09
135	0x2df037f7	2.7309694e-11
136	0x2a6566ad	2.0374909e-13
137	0x30a38fb9	1.1900659e-09
138	0x2e9397c0	6.711742e-11
139	0x317c5e40	3.6724401e-09
140	0x2a83dd59	2.3423865e-13
141	0x2920ac9c	3.567685e-14
142	0x2c7f23eb	3.6257618e-12
143	0x2bae9ab4	1.2406382e-12
144	0x2a40329d	1.7070586e-13
145	0x311c382e	2.2732922e-09
146	0x306015d5	8.152175e-10
147	0x2b040bb1	4.6912046e-13
148	0x2a2bfb79	1.5275098e-13
149	0x30327c3e	6.493258e-10
150	0x31985f23	4.434598e-09
151	0x3092e97f	1.0689262e-09
152	0x2997b383	6.7368874e-14
153	0x3115d4d9	2.1803344e-09
154	0x3090bbc3	1.0530744e-09
155	0x2a5b26ab	1.9464523e-13
156	0x3109f5e6	2.00759e-09
157	0x311844ef	2.2158095e-09
158	0x2ef73ea2	1.12433854e-10
159	0x315a5c61	3.1775687e-09
160	0x2c001b6c	1.8205116e-12
161	0x3018877d	5.548982e-10
162	0x2e9fc53e	7.26552e-11
163	0x2dbef1a5	2.1707811e-11
164	0x2a98012f	2.7001445e-13
165	0x2a555454	1.8947458e-13
166	0x2a4b459b	1.8054171e-13
167	0x31472693	2.8980238e-09
168	0x2a74c9a1	2.1741508e-13
169	0x2b45df68	7.02985e-13
170	0x2a8d8952	2.5141917e-13
171	0x30efcfdb	1.7448615e-09
172	0x310102d8	1.8773587e-09
173	0x2d83beb1	1.497766e-11
174	0x30a619d8	1.2085435e-09
175	0x2b408736	6.8399746e-13
176	0x2f1ce25c	1.4268536e-10
177	0x304a24f5	7.353969e-10
178	0x2e03caaa	2.9965953e-11
179	0x2f030617	1.1916544e-10
180	0x2a17a8bf	1.347004e-13
181	0x31011657	1.878467e-09
182	0x3101c7cd	1.8885544e-09
183	0x306a20a4	8.517509e-10
184	0x2f3dbf29	1.7257364e-10
185	0x2a3e10b5	1.6881186e-13
186	0x2d750a92	1.3928985e-11
187	0x2fd57f33	3.8834855e-10
188	0x2b122b14	5.19294e-13
189	0x31071f18	1.966276e-09
190	0x30354463	6.59446e-10
191	0x2e5775db	4.8990017e-11
192	0x2a370c4b	1.625793e-13
193	0x2a8e9b50	2.5332037e-13
194	0x2a2055b0	1.4240584e-13
195	0x3119d21c	2.2383864e-09
196	0x2b625b0e	8.0417693e-13
197	0x30a91158	1.2301298e-09
198	0x31124761	2.128637e-09
199	0x2dce6549	2.3464468e-11
200	0x2a7a71af	2.2243902e-13
201	0x30df79fe	1.6260058e-09
202	0x2e71d64b	5.4987386e-11
203	0x318968ce	3.9991397e-09
204	0x2a9a0f4c	2.736651e-13
205	0x29ffcbc8	1.1359625e-13
206	0x2d495aa1	1.1445651e-11
207	0x2ca4e14a	4.6861725e-12
208	0x2a5a97ca	1.9414952e-13
209	0x3131d0bf	2.5875548e-09
210	0x309d6f05	1.1454807e-09
211	0x2b876322	9.619842e-13
212	0x2a5b8a7c	1.9499154e-13
213	0x30797e2b	9.076497e-10
214	0x31a004af	4.6571453e-09
215	0x30c70493	1.4480456e-09
216	0x2961cc09	5.013701e-14
217	0x31319b2d	2.5845097e-09
218	0x30a7a3fd	1.2197457e-09
219	0x2a25b542	1.471783e-13
220	0x312852ee	2.4494358e-09
221	0x31290091	2.4593059e-09
222	0x2ed1044a	9.5049815e-11
223	0x31723810	3.5247503e-09
224	0x2bd69a05	1.5248364e-12
225	0x30544c1a	7.72333e-10
226	0x2f3872fa	1.677555e-10
227	0x2d9c1439	1.7744127e-11
228	0x29ed1ede	1.0530269e-13
229	0x2a9f8024	2.833299e-13
230	0x2b275035	5.944163e-13
231	0x315e22d2	3.2325045e-09
232	0x2a908946	2.567479e-13
233	0x2ac470b7	3.4894806e-13
234	0x2aa6889b	2.9582313e-13
235	0x310f58d2	2.0859727e-09
236	0x310ad3d5	2.0202056e-09
237	0x2d40a6f0	1.0951004e-11
238	0x30d1f45c	1.5276203e-09
239	0x2ac54fb6	3.504954e-13
240	0x2f304c05	1.6034114e-10
241	0x307c931d	9.1886126e-10
242	0x2ded30c8	2.6965444e-11
243	0x2ed32417	9.60158e-11
244	0x2a1b98fd	1.3819844e-13
245	0x3119eaf7	2.2397992e-09
246	0x312117de	2.344215e-09
247	0x30a69f80	1.2123422e-09
248	0x2fc5dae4	3.5989622e-10
249	0x2a5d98c5	1.9681746e-13
250	0x2e1d56a2	3.5774612e-11
251	0x30318b3b	6.4590083e-10
252	0x2ad063b0	3.7017394e-13
253	0x311cfc4f	2.2844409e-09
254	0x30893ee0	9.985932e-10
255	0x2e1d82d5	3.581387e-11

exp_avg f4 [32]
0	0x3be44309	0.006965999
1	0xbbe523f3	-0.006992811
2	0x353045ed	6.5666865e-07
3	0x35a9e570	1.2658256e-06
4	0x35e5dc7c	1.7125999e-06
5	0x37153294	8.892868e-06
6	0x3725ed34	9.8899945e-06
7	0x37620c89	1.3473568e-05
8	0x37bf3517	2.2793696e-05
9	0x348cfc9d	2.6260832e-07
10	0x36a313b8	4.860074e-06
11	0x35a97041	1.2624151e-06
12	0x364a21b0	3.0119954e-06
13	0x379cdd62	1.8699739e-05
14	0x3701db12	7.7400055e-06
15	0x36d41d92	6.321535e-06
16	0x36bf88f5	5.7081875e-06
17	0x36c97bcb	6.004678e-06
18	0x369a0f11	4.5913116e-06
19	0x35624ff5	8.4307914e-07
20	0x359127fc	1.0814979e-06
21	0x362e3275	2.595739e-06
22	0x35186638	5.677316e-07
23	0x36f5f1e6	7.3297297e-06
24	0x371cf1d9	9.354634e-06
25	0x3700c768	7.675822e-06
26	0x3710b73a	8.62573e-06
27	0x3601ad49	1.9323363e-06
28	0x36cb5c23	6.0605976e-06
29	0x35816c99	9.642855e-07
30	0x36ae6e76	5.1984634e-06
31	0x376713dc	1.3773297e-05
