models/epoch=9-step=130.ckpt (torch, 623072 bytes, 12 tensors)

classifier.0.weight f4 [64, 768]
00000000: 4de5 20bd 99d0 d33c d15a dbbb f66f 773b
00000010: e9ec b23b eba6 423c 8700 853c 883d 803c
00000020: 50c7 e03c ea34 97bc f713 c4bc c419 77bc
00000030: 0f3f cb3c 0fda 33bc aefe 2e3c f84f afbc
00000040: 54d7 a5bc e3e4 ccbc 5e5c 09bd 52ca 1e3d
00000050: a40f 093d cbd4 233d 2365 853c 896b 3a3c
00000060: 9f0f e43c d090 393c c24e 44bd a6cc 47bc
00000070: 42a0 043c b1b7 673c 950c 9ebc ac24 d63a
00000080: 552e 263c 482f c03b d4fc 413c 8f65 36bc
00000090: 7107 cdbc 0a9a bf3c e929 a73c a22b 6dbc
000000a0: b036 0fbc f877 603c d7e8 72bb 7c57 e43c
000000b0: a214 063d 917b 823c d239 363c 4e45 163a
000000c0: 8cf5 183d 535a 203c b2f5 1dbd e995 25bd
000000d0: f4f9 69bc b01c 0fbd b62b 2bbd 27de 24bd
000000e0: ff19 57bb 983f 0dbc 27d3 31bc 8193 053c
000000f0: 84b3 bebb 14ce 66bb 3e93 d2ba ae56 89bc
00000100: a755 46bc 7429 f4bc 62df 393c 98eb 24bd
00000110: fe81 1a3d f759 90bb 6b42 00bb 18eb 233d
00000120: cadb 18bc 88fe b93c bd77 e9bc 7154 51bb
00000130: 68a5 d3bb 21aa e43c 759f 0a3d 7648 f0bc
00000140: c22b a63b 9397 1bbd 46b0 5b3c 497d 97bb
00000150: bdd4 d53c f132 423b d0a8 2b3d b62b 7cbb
00000160: f0f1 00bd cd6c 9d3c 410f 223c 4424 bc3c
00000170: 7b3f 01bd 49f2 46bc 5417 653b a6a2 d9bc
00000180: be4a 5bbb 65fa c6bc 417b b83c 2c20 59bc
00000190: 40d9 b73b bab1 203d a805 30bb bb23 033d
000001a0: 0561 0cbd 3f2c d8bc 20d2 d2bb 40d8 a5bc
000001b0: 75f8 d53c c9e2 81bb 32e7 933c f160 5bbc
000001c0: 9c32 da3c 18db 1e3c eaab f7bb a3e1 05bd
000001d0: 74e9 e4bc cce2 eabc 9dc2 193c 6e4c 00bc
000001e0: d8c8 023b 3154 2dbd cded e3bc 3297 ba3c
000001f0: 9e28 903c 2b0a c93c 26a5 11bd 81db bdbc
00000200: b16b c93c 310a 8cbc 52b6 b5bc eff1 3dbc
00000210: 9c5b debc 3964 ccbb 091a b43c cf10 a43b
00000220: 1a47 ce3c c373 86bb 95ad 863b f330 b03c
00000230: ff5d b03c 4408 b5b9 8f35 42bb 6f01 1f3c
00000240: b024 053c ed74 2dbd fa39 0cbd 52ef d2bb
00000250: 67a6 b93c fe7f c03c c0a8 d0ba 5002 073b
00000260: 7706 20bc ec8d 10bc a474 473c e081 c63c
00000270: 7a83 78bc edaf 87bb 7676 ffbc 8de8 9dbc
00000280: 321a 64bc 9b2c 91bc bcf3 0bbc 9c74 15bc
00000290: 281e b7bc a93b 0abc b578 34bb ac10 e9bc
000002a0: 009e fe3c 5800 033d 4859 aabc 4a61 ebbc
000002b0: 78d3 ca3c 4094 793c d1bf b53c dbfd a5bb
000002c0: f481 4cbc 05d7 c3bc 82b3 353c 8377 d6bc
000002d0: eccf 8a3c 7ac1 da3c b9aa f0bb a79f b5bc
000002e0: 71c6 113d f9d7 e5bb e0b2 c03c d068 a03c
000002f0: ac8d 883b c4db c6bc 5162 273c 88d9 e43c
00000300: 9078 c13b 8233 35bc ab18 0fbd 1910 073d
00000310: 51ff a63c 7bfa 043b f8b8 c43c 43a7 70bc
00000320: 51fb 07bb cdfa d73b 2376 cabc 0ece 953a
00000330: 20bf cd3b fd43 e43a 9a53 93bb ce98 1ebd
00000340: 740a 7d3c 721a b63c f73c 373d 7ee7 173d
00000350: c7a7 7c3c 819a d23c 620b af3c 51fa c73b
00000360: 34df 5dbc 50c0 823b 190b a43c fbd4 5839
00000370: 27b4 923c d43e afbc 6ebc ae3b e1bb cabc
00000380: ade9 b5bc 94fd c53b 23a5 2f3d e91b 713c
00000390: 9e02 97bc bb0b 143d d3bd 13bd 7556 b4bc
000003a0: f77b de3b 6aa9 7dbb df0c 8d3c 47cd 47bc
000003b0: d1fb b5bb 39f6 13bc e072 d63c b276 793c
000003c0: c804 92bb e4d1 e6bc 692a 323b 6c3c 23bd
000003d0: c2cd 813c 5aa6 c53b fadb 8abc c0e6 3539
000003e0: 6642 763d ffb3 cebc ada5 723c 810b b23b
000003f0: d0af 02bd c1d7 cd3b 118f cdbc 2fa7 b6bb
-0.03928118 0.025856303 -0.006694176 0.0037755943 0.005460371 0.011880617 0.016235603 0.01565434
0.02743879 -0.018457849 -0.023935301 -0.015081827 0.024810342 -0.010977282 0.010680838 -0.021400437
-0.020244278 -0.025011485 -0.033535354 0.038767166 0.03346218 0.039997857 0.016283577 0.011378177
0.02783948 0.01132603 -0.04792667 -0.012194788 0.008094849 0.014142917 -0.019293109 0.0016337833
0.010142882 0.0058650114 0.011840064 -0.011132612 -0.025027962 0.023388881 0.020405727 -0.014475735
-0.008741066 0.013700478 -0.0037065053 0.027873747 0.03273452 0.015928062 0.011122184 0.0005732373
0.037343547 0.00978716 -0.03856439 -0.04042617 -0.014280785 -0.034939468 -0.041789733 -0.040250923
-0.0032821891 -0.008621119 -0.010853565 0.008152843 -0.00581974 -0.0035218047 -0.001606561 -0.016764965
-0.012105382 -0.029804923 0.0113447625 -0.040263742 0.037721626 -0.004405256 -0.0019570838 0.040019125
-0.009329746 0.022704378 -0.028499478 -0.00319412 -0.006458927 0.027913155 0.033843476 -0.029331427
0.0050711343 -0.03798635 0.013408726 -0.0046230895 0.026102418 0.0029632414 0.04190904 -0.0038478202
-0.03148073 0.01921692 0.009891332 0.022966512 -0.03155468 -0.012142726 0.0034956532 -0.026566815
-0.0033461298 -0.02428932 0.02251971 -0.013252299 0.005610615 0.039231993 -0.002685884 0.032016497
-0.034272213 -0.026388286 -0.0064337403 -0.020244718 0.02611945 -0.0039638025 0.018054578 -0.013389812
0.02663546 0.009695791 -0.0075583356 -0.032685887 -0.02794335 -0.028672598 0.009384778 -0.007830722
0.0019956138 -0.04231662 -0.027823353 0.022777174 0.017597493 0.024540981 -0.03555789 -0.023175957
0.024587484 -0.017094703 -0.022181664 -0.011593326 -0.027143292 -0.0062375334 0.02198507 0.0050068866
0.025180388 -0.0041031553 0.004110048 0.021507716 0.021529196 -0.0003452917 -0.0029633974 0.009704932
0.008126423 -0.042347837 -0.03423498 -0.0064372206 0.022662355 0.023498531 -0.0015919432 0.0020600744
-0.009767166 -0.008822899 0.012173805 0.024231851 -0.015168065 -0.004140845 -0.031184416 -0.019275928
-0.013922261 -0.017721465 -0.0085419975 -0.00912204 -0.022353247 -0.008437076 -0.0027537767 -0.028450333
0.0310812 0.03198275 -0.020794526 -0.028732914 0.02475904 0.015233099 0.022186192 -0.0050656623
-0.012482155 -0.02390624 0.011090161 -0.026180035 0.016944848 0.026703585 -0.0073445705 -0.022170855
0.03558964 -0.0070142713 0.023522794 0.019581228 0.004167279 -0.024274714 0.010216312 0.027935758
0.0059042647 -0.011059644 -0.034935635 0.032974336 0.020385416 0.00202909 0.024013981 -0.014688316
-0.0020749161 0.006591177 -0.024714535 0.0011429207 0.0062788874 0.0017415282 -0.00449605 -0.038719945
0.015444387 0.022229407 0.044735875 0.037086003 0.015420861 0.025708439 0.021367732 0.006102838
-0.013541985 0.0039902106 0.020024823 0.00020678707 0.017908169 -0.021392263 0.005332521 -0.02474779
-0.022206152 0.0060421918 0.042882096 0.014716127 -0.018433865 0.036144 -0.036069702 -0.022013882
0.00678968 -0.0038705715 0.017218051 -0.012194938 -0.0055537005 -0.009030872 0.026177824 0.015226053
-0.0044561364 -0.028176256 0.0027185923 -0.039852545 0.015845183 0.0060317935 -0.016950596 0.00017347466
0.060121916 -0.025232313 0.014810008 0.0054335003 -0.03190595 0.0062818234 -0.025092633 -0.005574129

classifier.0.bias f4 [64]
00000000: 9c1a 90bb 725a 803a 1b26 963c 0b8f d83c
00000010: 45ce 15bd a1b7 913c 2d1b 18ba dabb 103c
00000020: c97c 443d 8fe8 2d3d 6c31 043c 9081 edbb
00000030: 970e 063d 6818 25bd 2afd 823c aae1 73ba
00000040: cd52 073d 693f 0fbd 29a2 08bd 3daf 29bc
00000050: 2008 2bbd edb4 113d 7b50 123c 763f fa3b
00000060: 38b0 be3c 6305 9ebc fe5f 3b3d 6fb1 07bd
00000070: 5d1f bc3b f13c d43b e5a1 ba3c db04 04bd
00000080: c33e 9f3c ead4 06bd adab 24bd 300a 5ebd
00000090: 981f 4e3c acaf d4bc b8c3 dbbb d2e5 2d3c
000000a0: 4111 5e3b e9ae c4bc 854e 393d 29ab db3c
000000b0: 9918 29bc 8fb4 45bd eb90 68bc f42b ac3c
000000c0: 7272 423d 5186 9abc fa81 3c3c 9fb9 093c
000000d0: c36b 44bd 5a21 c2bc 55ef 953c a754 c53c
000000e0: 84c1 823c 06f3 90bc b936 5b3c 51ae f63c
000000f0: 9c7a 0fbc 0813 1e3c d162 563d a80e 1c3d
-0.0043977033 0.000979258 0.018328717 0.026435396 -0.036573667 0.017787756 -0.00058023894 0.00883385
0.047970567 0.042458113 0.008068424 -0.007248111 0.032728758 -0.04030648 0.015989859 -0.0009303341
0.03303795 -0.034972582 -0.033357773 -0.0103567215 -0.041755795 0.035572935 0.008930321 0.0076369597
0.023277387 -0.019289678 0.045745842 -0.0331282 0.0057410435 0.0064769913 0.022782275 -0.032231193
0.019439107 -0.032917894 -0.040202785 -0.054208934 0.012580775 -0.025962673 -0.006706681 0.010613875
0.0033884796 -0.024009185 0.045240898 0.026815014 -0.010320806 -0.048267897 -0.014194707 0.021017052
0.047472425 -0.018862875 0.011505598 0.008406072 -0.047954332 -0.023697544 0.018302599 0.024088217
0.015961416 -0.017694008 0.013379746 0.030112417 -0.00875726 0.009648092 0.052340332 0.038099915

classifier.2.weight f4 [32, 64]
00000000: 66f4 f5bd 88b0 8bbd d848 f63d b72c c2bc
00000010: 7b9c 0bbe 4ba5 783d 0b72 cdbd f236 0b3e
00000020: 504e 193e 2520 723d a0f7 60bd b18b ff3c
00000030: 1852 0e3d 785b ab3d c62e 9c3c 5519 00be
00000040: 3798 803d ba85 09be 39ae 47bd eb94 0e3e
00000050: 3d8a 633a 40a3 78bd 3891 bc3d 1ca8 df3d
00000060: d5b9 c5bd f017 aa3d 87f2 57bd 9a84 5ebd
00000070: c0a1 383c c094 a6bc debf 4dba 85da 16be
00000080: 98b5 b7bd 6773 b2bd f06f 963c ee59 0fbe
00000090: 8330 abbd 6586 153e a97d a13d 35eb a33d
000000a0: 880e 3ebd 286a febd 2e2a 0cbd 4f58 103e
000000b0: 3904 a83d 1ac0 0bbc b849 093e 915b aebc
000000c0: c0c7 113e b051 c23d 228b 43bd 66d6 4f3d
000000d0: 642b 8ebd 4f3d d1bd e373 003e 3d47 143e
000000e0: 7096 623d 4a8f 103d ff50 97bc 805e 79bd
000000f0: 5555 f73c 1880 0d3e 1481 003e 1a62 8b3d
00000100: 08d0 a8bd ab99 183e 64c9 dc3d 5068 ac3d
00000110: 8430 bd3b 9742 f93d 8f28 9fbd 25f8 ec3d
00000120: 2f57 e4bd 7bdf dd3d a00d 02bd 6e9c 9f3d
00000130: c4a4 b63d c08a 9dbd e2dc 88bd 62bf b53d
00000140: b651 cf3c d9b4 ab3d 09de 2e3d 929e 5b3d
00000150: 802f f1bd 1ad0 d13d 8454 0ebe eef4 1bbd
00000160: 5cc4 d23d b96f ecbb 130d f73d bb5e c5bd
00000170: 58dd 06be 3d64 17bd a00c 92bd 2c88 6a3c
00000180: bca2 b13c db9c 2a3d becf 85bd 16e9 383d
00000190: 9c71 bebd 8614 b8bd eaeb 893d ce32 5a3d
000001a0: 8cbb d23d 6a99 74bd 1c27 103e 4cc3 51bd
000001b0: 783a e83d 6d5f 17be 2a26 dfbc 8d65 e7bc
000001c0: fd0e 783c 94cf f4bd c1bd 07be b527 7d3d
000001d0: 0d76 0ebe e347 59bd 4778 b03d ea67 e2bd
000001e0: 6a13 10be f70c fe3d 0739 c63d ac6c c93d
000001f0: 4552 a0bc b593 6abc c224 b0bc 163f 8d3d
00000200: 52dd af3d 1408 8ebc 2349 733c 2fd9 a83d
00000210: 45fb 18bd 3776 06be 7d91 a7bd 17f6 a93d
00000220: 660b 0ebd 0408 353d 4d41 003e e4c3 8fbd
00000230: 959f 0dbe 9316 5abd 81e3 933d 96f7 c93d
00000240: bd27 dcbc 39b1 493d e133 823d 2db0 f2bd
00000250: 6c9c b93d 8e96 873c 4a3d 0c3e 1ef6 c13d
00000260: c8fb 2bbd 19c9 f2bc 240b b73c d5f5 7dbd
00000270: 5542 803d 83a2 d1bd 68f7 98bc d8c5 263d
00000280: 2b82 203d df39 fc3d 0776 d93b 9f0d 983d
00000290: bbb0 813d bf59 c73d e2a0 383d 0f0c 05be
000002a0: 0fcd bd3d 8544 123e e6f2 afbd 978a 07bd
000002b0: 6ae8 91bd 1a8e 833d 8743 f7bd 8a4f 243d
000002c0: a832 bf3d d821 40bd 95b8 82bd 8cc6 d8bd
000002d0: d907 093e be0e 123e 543c 8abc cd34 c03b
000002e0: 2553 ae3d 0d69 2a3d a699 2abd 7261 11be
000002f0: cd70 993c 3a62 ac3c f45d b9bd a368 e8bd
00000300: 2d65 a73d a15d 0cbd 29e3 0f3d f5e0 10be
00000310: e00d c5bd 872d 103b 94aa b03d 6f95 b93a
00000320: fd0d dfbd f3da 6fbd 92e7 4e3c 6580 d1bd
00000330: 11de 8c3c fa77 c4bd 1893 8cbd c1f8 fbbd
00000340: 3131 b43d b91e 9cbd 945a 293d 149a e1bd
00000350: 1d66 023e 9a43 823a 5cf6 763d fd37 4dbd
00000360: a16b 9abd 1cb8 f1bd fd52 99bd e02c e6ba
00000370: 09cc a5bd cdbe a23d ba8e 96bd 6e97 c93d
00000380: fe2f fdbc fb10 7abd 76de 7c3c bd8f 2b3d
00000390: ac9a c4bd c640 303d efde e5bd e53f ffbd
000003a0: 9a96 b4bd b81e de3d 4c71 893d e21c bc3d
000003b0: d612 803c 2f5c c1bd 488a ab3d 3ddc a73c
000003c0: 3d35 0bbd 9467 6dbc b299 85bd c392 eabb
000003d0: d558 8dbd a1e3 22bb 9b16 b8bc 5499 abbd
000003e0: b8d8 203d 9f1d 0fbe a922 cd3d dd7c 0cbd
000003f0: 54e2 dc3d 1cb0 5c3c 505a c73d 230d 97bd
-0.12009506 -0.0682078 0.120256126 -0.023702962 -0.13633911 0.06070451 -0.100315176 0.13595179
0.1497128 0.059112687 -0.054923654 0.03119454 0.03474626 0.08367056 0.019065272 -0.12509663
0.06279033 -0.13429919 -0.048750136 0.13923995 0.0008679962 -0.060702562 0.09207386 0.10920736
-0.09654585 0.08305347 -0.052721526 -0.054325677 0.011269033 -0.020334601 -0.000784872 -0.14731796
-0.08970183 -0.087134175 0.018363923 -0.13999149 -0.08358862 0.14602049 0.07885296 0.080038466
-0.046400577 -0.124225914 -0.034219913 0.14096187 0.082039304 -0.008529687 0.13407028 -0.021283897
0.14236355 0.09488237 -0.04774011 0.050741576 -0.0694187 -0.10216772 0.12544207 0.144803
0.05531925 0.0352929 -0.01847124 -0.060881138 0.030192057 0.13818395 0.1254924 0.06805821
-0.08242804 0.1490237 0.107806 0.084183335 0.005773606 0.12170904 -0.07771408 0.11570767
-0.111494415 0.10833641 -0.031751275 0.077935085 0.08918145 -0.0769248 -0.06682755 0.08874394
0.025307517 0.08384103 0.042692218 0.05361802 -0.11776638 0.1024477 -0.13899428 -0.03807538
0.10291359 -0.007215467 0.120630406 -0.09637209 -0.13170373 -0.03696083 -0.07131314 0.0143146925
0.021684043 0.041653495 -0.06533764 0.045144163 -0.09299013 -0.089882895 0.0673445 0.053271107
0.10289678 -0.05971662 0.14077419 -0.05121164 0.11339277 -0.14782496 -0.027239878 -0.028246665
0.015140292 -0.11953655 -0.13255979 0.061805446 -0.1391222 -0.053047072 0.08616691 -0.11054976
-0.14069906 0.124048166 0.09678846 0.09835181 -0.01957048 -0.014317443 -0.021501902 0.06896798
0.085871354 -0.017337836 0.01484898 0.082445495 -0.037349004 -0.13131033 -0.081820466 0.08298891
-0.03467884 0.044197097 0.1252491 -0.07019785 -0.13830407 -0.053244185 0.07221127 0.098616764
-0.026874417 0.04924128 0.06357551 -0.11850009 0.09063038 0.016551282 0.13695255 0.09470771
-0.041988164 -0.029636906 0.02234418 -0.06200202 0.06262652 -0.10236075 -0.01867266 0.040716022
0.039186638 0.123157255 0.0066363844 0.07424473 0.06332537 0.097339146 0.045075305 -0.12992881
0.092676274 0.1428395 -0.08591251 -0.033091154 -0.071244076 0.06423588 -0.12073427 0.040114917
0.09335834 -0.046907276 -0.063828625 -0.10584745 0.133819 0.14263436 -0.01687447 0.0058656693
0.08511952 0.04160409 -0.041650437 -0.14197329 0.018730545 0.021042932 -0.09051123 -0.11348083
0.081735946 -0.03426898 0.035128746 -0.14148314 -0.09621787 0.0021999793 0.08626285 0.0014158915
-0.1089134 -0.058558416 0.012628453 -0.102295674 0.017195733 -0.09593196 -0.068639934 -0.123033054
0.08798445 -0.076230474 0.041346148 -0.11015716 0.12734266 0.000993836 0.06029354 -0.050102223
-0.0754006 -0.11802694 -0.07486532 -0.0017560981 -0.08095557 0.079465486 -0.07351442 0.09843336
-0.030906674 -0.06105135 0.015433898 0.041885126 -0.09599814 0.043030523 -0.11224162 -0.12463359
-0.088177875 0.10845703 0.06711063 0.091851965 0.015633982 -0.09441411 0.083759844 0.02049076
-0.03398632 -0.014490027 -0.06523456 -0.0071586086 -0.06901709 -0.0024854916 -0.022471717 -0.083788544
0.03926918 -0.13976143 0.100163765 -0.034298766 0.10785356 0.013469722 0.097340226 -0.073755525

classifier.2.bias f4 [32]
00000000: 30ab bcbd 1fc6 c43d 1816 c53d 19e4 a9bd
00000010: 7f3b 683d 934f cc3c b380 6c3d 043d 01bd
00000020: b9b9 853c 3473 84bd b432 66bc 98b2 d63d
00000030: e424 f3bd 4fb0 68bd 0033 83bd 2ccf b2bd
00000040: 1023 f43a 2307 ccbd 6f9b 9dbd 3205 04bc
00000050: 3013 8b3c 49af 0dbe 09f1 75bb c764 d3bc
00000060: a986 80bd 1e2b 1f3c e254 663a 7966 3c3d
00000070: 991b 7ebd 7b88 c03d 9cf0 3d3d 90ce a5bd
-0.09212339 0.09608101 0.09623355 -0.08295459 0.056697365 0.024940288 0.057739925 -0.03155233
0.016323911 -0.06467286 -0.0140501745 0.10483283 -0.11872271 -0.056808766 -0.06406212 -0.08730921
0.0018626172 -0.09962299 -0.07695662 -0.008057879 0.016976923 -0.13836397 -0.0037527701 -0.02580489
-0.062756844 0.00971487 0.0008786452 0.045996163 -0.062038038 0.094010316 0.04637204 -0.08096039

exp_avg f4 [64, 768]
00000000: eedb 0f35 6412 8635 1a2a eeb3 e665 e034
00000010: 1963 3933 1ef4 9035 25bb 51b5 203a d1b5
00000020: a247 6335 1add 9235 1fac 39b2 9691 3735
00000030: 0b96 e0b4 fc38 e2b5 b99e df33 30ff 56b5
00000040: 904a bcb3 32a5 95b5 a645 a8b4 db80 0235
00000050: 0832 bf34 5b5e 8835 ab25 e5b4 7876 21b5
00000060: 868c cd34 b5a7 c534 7fd8 6134 f155 e334
00000070: 7ff7 8fb5 bf84 c2b4 8eeb 7b33 964a 0a32
00000080: 94eb 9835 9f63 5435 58e8 bbb4 f841 ac35
00000090: 64ff b634 c7f9 3e35 db56 8234 11cd 83b4
000000a0: a02f 48b4 723d eeb4 ec48 3cb5 edba 3935
000000b0: ea84 6c35 9483 3c35 1554 3837 0615 63b4
000000c0: 936c 0b34 a4d4 ca34 9e3e d0b5 e18c 88b4
000000d0: f1e4 b0b4 cc36 76b5 9c98 d6b5 f86c e3b5
000000e0: e898 ca35 ef17 adb5 8bf3 8d34 f099 07b4
000000f0: 52fe abb4 debb 3bb5 ebe0 f234 e902 3535
00000100: 7198 4734 9f4e a131 4778 8a34 a65f 86b5
00000110: 965f 7b34 fe94 cab5 3d7d 0a35 8b44 1435
00000120: f309 05b5 fc8d a734 cb4c 52b3 ede2 4b34
00000130: 2779 09b1 a5a7 36b5 e127 9935 6d49 adb4
00000140: c30a 4bb5 5cec a9b5 b078 cab5 5624 98b5
00000150: 2ff7 d834 8ce8 8cb4 8574 2d35 2096 d534
00000160: 1426 d4b4 b327 8eb5 2284 fc35 f439 1935
00000170: 5a32 3134 c793 a4b4 ae5a 13b6 87d1 ba35
00000180: 51ed b534 0f43 f233 48e6 a4b4 9d06 95b5
00000190: 9be1 5ab5 1b48 7234 5c43 b2b4 2875 2036
000001a0: 218b 6733 9475 03b4 d851 4cb5 6bad 7735
000001b0: e3e0 15b5 230f d636 f39c 21b5 cf60 61b5
000001c0: 5b5f 0e34 22c4 9135 019f 2635 2798 90b5
000001d0: 182b 81b5 4785 6335 d5de 5c34 4cf6 4fb5
000001e0: 3cb3 5ab4 c1d6 cdb4 1e96 db34 b15a bc34
000001f0: d3cc 3b34 e787 bcb5 a238 d632 d172 7935
00000200: b8fa e3b3 6de6 93b5 c9bb e7b5 d822 99b5
00000210: 5b97 a7b3 553c 6d35 7fb1 0535 1a22 aeb5
00000220: c087 3db4 d1e5 b334 be50 8a35 f6d6 47b5
00000230: 4fdd 1c35 1d3d 5835 2750 2537 2ac0 c7b5
00000240: 9e00 30b6 9cd7 26b5 1a20 a234 5901 67b4
00000250: caf1 1d34 fdb4 91b2 0380 3bb5 3c52 3234
00000260: ff4a 0f35 2049 5d35 62f0 6835 48dc 1ab4
00000270: aab4 7935 e641 98b4 a958 a8b5 5f43 9b33
00000280: 560e a5b5 e64a 0f35 afa4 e932 16f8 fe34
00000290: 5147 7034 b23c 26b5 6a48 5eb5 8b4d b132
000002a0: 3bb0 8235 679e 84b4 ed66 cb34 b1ca 87b5
000002b0: acb3 feb5 87aa cb34 0c71 66b5 7c1c 5033
000002c0: 77ee 80b5 2cd9 b0b5 9f31 4ab5 7d34 7535
000002d0: 1437 3f35 c0da f6b5 5180 0cb5 8f92 93b4
000002e0: 0d8a 9b33 0186 af34 dbef 2eb5 7396 5735
000002f0: 94a6 4a34 e4d6 2fb4 2aba eb34 4aca 2c35
00000300: 9e05 9135 f396 2d35 5f32 bdb5 41dc 93b4
00000310: 8004 21b5 1f26 af35 196c 84b4 6d6f 69b4
00000320: 4d2c de34 543a 8b34 0cd7 22b5 8da0 d2b4
00000330: 7482 9635 0d7a 3ab7 94c2 cfb3 625d 1e33
00000340: 582d 86b5 7fb7 0bb5 dbcf b2b2 e64b 98b0
00000350: 3338 0333 42bb 6d34 660e 5eb3 97df 00b5
00000360: 2447 dcb4 b007 ac34 ff4e 7db4 3b88 0635
00000370: 8143 58b5 6e4f 64b5 91ec 1534 c9b6 35b4
00000380: 8045 0834 74c2 6ab5 bb40 4f35 dbff 5eb4
00000390: c5cf b3b5 f50e 8936 0ac3 0eb1 e20f fcb4
000003a0: 6ce4 0435 bc33 83b5 e1ca 5f35 a877 d834
000003b0: e166 bbb4 9c1d f234 1ca0 fbb4 b91d 2433
000003c0: eeb6 c234 991a 06b5 09ce 38b5 afdd 91b5
000003d0: 3761 ab34 fe09 aab5 b745 adb4 e88e 2234
000003e0: a8cb 90b4 111b 8635 1eb6 0eb5 7c5e 18b5
000003f0: 3e4c efb4 5c2f 5ab3 216e 6eb5 a7ec 42b5
5.359169e-07 9.98913e-07 -1.1090397e-07 4.1797392e-07 4.3163798e-08 1.0799884e-06 -7.81309e-07 -1.558863e-06
8.466833e-07 1.0942197e-06 -1.0807553e-08 6.838467e-07 -4.1832422e-07 -1.6854897e-06 1.0413118e-07 -8.009256e-07
-8.767995e-08 -1.1149443e-06 -3.1343114e-07 4.8616283e-07 3.5612925e-07 1.0160251e-06 -4.268198e-07 -6.014957e-07
3.828647e-07 3.6816132e-07 2.1033519e-07 4.2344575e-07 -1.0726361e-06 -3.62319e-07 5.8654727e-08 8.049616e-09
1.1393445e-06 7.912112e-07 -3.5000517e-07 1.2834198e-06 3.4085963e-07 7.114399e-07 2.4277583e-07 -2.4549857e-07
-1.8643777e-07 -4.4375662e-07 -7.0141573e-07 6.9189883e-07 8.8110266e-07 7.022693e-07 1.09868315e-05 -2.1148671e-07
1.2984883e-07 3.7780148e-07 -1.5515432e-06 -2.5434477e-07 -3.2949131e-07 -9.172188e-07 -1.5988658e-06 -1.6944532e-06
1.5094674e-06 -1.289647e-06 2.6440497e-07 -1.2628857e-07 -3.2036274e-07 -6.993631e-07 4.5239662e-07 6.743199e-07
1.8588777e-07 4.694655e-09 2.5792016e-07 -1.0011615e-06 2.341097e-07 -1.5093535e-06 5.159125e-07 5.523404e-07
-4.956084e-07 3.120948e-07 -4.8964278e-08 1.8988403e-07 -2.000499e-09 -6.804424e-07 1.1410995e-06 -3.2277185e-07
-7.5639053e-07 -1.2660271e-06 -1.5085297e-06 -1.1335458e-06 4.0412985e-07 -2.6246232e-07 6.461708e-07 3.9783572e-07
-3.9515783e-07 -1.0591378e-06 1.8813919e-06 5.7081274e-07 1.6502727e-07 -3.0654903e-07 -2.195749e-06 1.391906e-06
3.3886548e-07 1.1281201e-07 -3.0714932e-07 -1.110329e-06 -8.153963e-07 2.2564238e-07 -3.3204094e-07 2.3910052e-06
5.3910416e-08 -1.22431e-07 -7.611502e-07 9.2267027e-07 -5.583408e-07 6.379459e-06 -6.0205565e-07 -8.3959907e-07
1.325947e-07 1.0860424e-06 6.20712e-07 -1.0773118e-06 -9.623791e-07 8.4758034e-07 2.0570162e-07 -7.747192e-07
-2.0368037e-07 -3.834048e-07 4.0901153e-07 3.5083715e-07 1.7490247e-07 -1.4046644e-06 2.4938632e-08 9.292681e-07
-1.0616117e-07 -1.1019416e-06 -1.7265494e-06 -1.1409529e-06 -7.804075e-08 8.8377175e-07 4.980465e-07 -1.2973935e-06
-1.7651382e-07 3.3508562e-07 1.03053e-06 -7.4446086e-07 5.8436575e-07 8.05552e-07 9.853428e-06 -1.4882582e-06
-2.6226403e-06 -6.215357e-07 3.0198208e-07 -2.1514042e-07 1.4709727e-07 -1.6962526e-08 -6.984921e-07 1.6607459e-07
5.3380785e-07 8.2435326e-07 8.677654e-07 -1.4422506e-07 9.302263e-07 -2.8360154e-07 -1.2542779e-06 7.230005e-08
-1.229763e-06 5.338064e-07 2.719966e-08 4.7491693e-07 2.2377687e-07 -6.192814e-07 -8.280682e-07 2.0640774e-08
9.737045e-07 -2.470217e-07 3.7886585e-07 -1.0117275e-06 -1.8976766e-06 3.7935772e-07 -8.584618e-07 4.845468e-08
-9.606146e-07 -1.3176227e-06 -7.532307e-07 9.134599e-07 7.1233194e-07 -1.8392093e-06 -5.234079e-07 -2.748752e-07
7.242861e-08 3.269379e-07 -6.5169087e-07 8.0312674e-07 1.8873317e-07 -1.6376322e-07 4.3907613e-07 6.436936e-07
1.0804977e-06 6.466718e-07 -1.4096257e-06 -2.754114e-07 -5.998372e-07 1.3049611e-06 -2.4665567e-07 -2.1740352e-07
4.1382955e-07 2.5933207e-07 -6.066264e-07 -3.9232364e-07 1.1213838e-06 -1.1114881e-05 -9.674582e-08 3.6872173e-08
-9.996975e-07 -5.2048557e-07 -2.0816449e-08 -1.1081027e-09 3.0551927e-08 2.2140469e-07 -5.1701498e-08 -4.800908e-07
-4.1029955e-07 3.204309e-07 -2.35912e-07 5.011713e-07 -8.05645e-07 -8.5052204e-07 1.3962769e-07 -1.6923435e-07
1.2691271e-07 -8.745476e-07 7.7207704e-07 -2.0768441e-07 -1.3397008e-06 4.0846594e-06 -2.0774586e-09 -4.6950214e-07
4.950623e-07 -9.775317e-07 8.33692e-07 4.0320197e-07 -3.4906319e-07 4.5097556e-07 -4.6868888e-07 3.8211258e-08
3.6268415e-07 -4.9957595e-07 -6.884516e-07 -1.086786e-06 3.1921965e-07 -1.2668895e-06 -3.2274485e-07 1.5139415e-07
-2.697027e-07 9.991655e-07 -5.316414e-07 -5.6761905e-07 -4.4572693e-07 -5.0800153e-08 -8.882217e-07 -7.2615006e-07

exp_avg_sq f4 [64, 768]
00000000: 1cef e92b b31e 9f2f 2ab7 f52b eac0 bf2e
00000010: e999 262e 1989 852f 9660 f12f 400c cb2f
00000020: e101 be2d 51ba 1d2f 762f 0c2d c286 db2d
00000030: d2c5 722a 178e ad30 43b0 0e2c 608e ff2f
00000040: 33fa a62d f0ac 3330 bd52 152f 25fb 0e2e
00000050: 5ece 812e 1700 932f 102f aa2f f0dc d42f
00000060: 8cd1 7f2f 8aeb 6e2d 599f 4d2b 31ba 9f2d
00000070: 58d4 0d2e 67ea 5b2a d4b0 1c2e e226 572a
00000080: bb00 f62f 15fc 7930 323b ed2d 7795 7d30
00000090: 5306 e42d b6ac 202d 91bd 932c ce6b 662e
000000a0: 5c15 a52a 41d8 502f 9d8d f92c 2b78 d12f
000000b0: 3013 0c2e b88f 9c2f e3ed 8633 a34a c22c
000000c0: 4dd4 042f 74e3 2d2f 196d 8f30 2d0d 7c2c
000000d0: 543a c92c d764 1830 c418 7c30 9b32 8e30
000000e0: b610 6d30 a18d 1330 cc93 e92a 0e0a 282f
000000f0: 72f9 0430 2cbe d92e 7d74 7b2f 81ea 6d2e
00000100: 6b42 ea2d 10b0 ed2d 762f 902e 8c4f 832f
00000110: 0dd6 af2f 693b ba30 3d90 9d2f 9310 792f
00000120: 8e6f 2c2e 69be 422f a3a0 8d2c 6599 1c2f
00000130: 7c66 452d ddd7 1930 c34a f62f fbcc 322e
00000140: 1da8 ab2f 416a 3a30 f36a 3f30 fb26 532f
00000150: 1a0e 152f 10d1 072f 8acb 4d2d 2981 c02a
00000160: 0a20 942f 5984 5830 4390 bf30 53ed 4e2e
00000170: 2c3b 382c 8910 192f 575d fc30 4473 9130
00000180: f718 ef2e dbbd 5d2d 6573 4f2f 93c9 5930
00000190: f6dc ac2f 16fc c52e 60c0 b42e f295 6631
000001a0: e4f5 f02d f5f6 e92e cafa 932e 0108 0030
000001b0: 62f3 242b ad85 c532 0b93 492f 9752 8830
000001c0: 1803 0e2b 9bad a530 726f 292f eea5 e52f
000001d0: 82a9 232f 251f a92f 0e89 952b d84f d72f
000001e0: 7d46 dd2e 9069 8b2f a884 932f d1d5 242e
000001f0: c221 762e 38ff 8a30 4174 742c 0c87 0930
00000200: dcb1 8d2e 60a7 2f30 e9f0 d130 6970 8930
00000210: 3c96 8e2e d48c 642f bd4d 3a2f ff3d f12f
00000220: c4a8 e82e 8b66 462c c781 462f ca9b b82c
00000230: 2ed5 1f30 cc18 0f30 9925 5d33 a60b fd30
00000240: 2cd0 2831 dca7 5b2f 9609 5a2e 52d7 f82d
00000250: 606d d12d a5e4 b32d a799 5a2c a212 5a2d
00000260: 92db c12f d8f3 c82f 081b d12e 9d25 6e2f
00000270: 1ef5 6c2f 430a f22e 7915 442f 73b4 8b2e
00000280: 2bf6 b230 0686 072f bf78 db2e c1e4 952e
00000290: f12c 372f 4887 632f b27d de2f 8a07 892e
000002a0: 8b77 e42e 07e4 902b 3ec3 262d 750b f02f
000002b0: e442 dc30 8260 e32f 2975 0b30 c1f7 c82c
000002c0: 7ba0 0d2f ada8 7930 3450 df2e 48ea 202f
000002d0: a28a 6530 5717 1231 3f47 2c2d 4df5 222f
000002e0: a9f6 7a2b c3b8 212e 8f9c b32f e00d 0e30
000002f0: 9ad5 5a2f af9c 3b2e 7484 9f2f 1a4b d62f
00000300: d778 212f dce8 022f e3c4 c030 7517 572b
00000310: 9832 402e 6b58 9f30 8b3f 662f e484 4a2f
00000320: c064 4f30 4c15 1c2b 4a19 a92e 3e98 fe2d
00000330: 5766 d72f 5201 a733 ccd0 2b2a 5e7c f72e
00000340: 8c13 5a2f 7e86 1430 6d41 312c 7ac8 972d
00000350: adb7 4a2c 5566 072f 57f8 ff2d 5953 372f
00000360: 93cf a32f a3be 222f 9762 052f be03 972e
00000370: b9ca af2f 2362 3d2f 67a6 b02e 16af 5e2c
00000380: 616d 132f f5cc 0830 00d3 9a2f 59de 862f
00000390: 1923 2130 23aa 5332 3694 8a2c 0fe9 6b2f
000003a0: f929 dc2f ff5a 6930 0b05 e82f bfb0 482e
000003b0: a068 732e ff56 e12e 5fe0 b22b b8c4 082e
000003c0: 3c08 002f ac68 982f b84b 672f 2bb7 f52f
000003d0: e215 c62f 0d18 0630 0d79 9e2f d6f2 8b2e
000003e0: e48a 0c2b bd6d 052f 8df6 532e 73e1 762d
000003f0: c1aa c22d 1a54 1b2f a7f9 8e30 91a3 ed2f
1.6622012e-12 2.8943745e-10 1.7459135e-12 8.719943e-11 3.788073e-11 2.4289973e-10 4.3906273e-10 3.693419e-10
2.1601334e-11 1.434526e-10 7.968617e-12 2.4957262e-11 2.156255e-13 1.2627791e-09 2.0277259e-12 4.6485393e-10
1.8983126e-11 6.536558e-10 1.3580866e-10 3.2510123e-11 5.902899e-11 2.6739208e-10 3.095626e-10 3.871956e-10
2.3266561e-10 1.3581034e-11 7.305177e-13 1.8158893e-11 3.2248287e-11 1.9532432e-13 3.562735e-11 1.9109326e-13
4.4747658e-10 9.09439e-10 2.6970069e-11 9.2253266e-10 2.5923408e-11 9.1332965e-12 4.1990374e-12 5.2391695e-11
2.932471e-13 1.8994319e-10 7.092728e-12 3.8102263e-10 3.1849356e-11 2.8478353e-10 6.2831326e-08 5.522098e-12
1.2080754e-10 1.5815066e-10 1.0435627e-09 3.5818668e-12 5.7192393e-12 5.544058e-10 9.171226e-10 1.0346243e-09
8.6243845e-10 5.3679555e-10 4.149167e-13 1.5283083e-10 4.8375803e-10 9.901799e-11 2.2869702e-10 5.4095842e-11
2.6632216e-11 2.7021968e-11 6.5567926e-11 2.3885283e-10 3.1984407e-10 1.3550167e-09 2.866062e-10 2.2652306e-10
3.9207353e-11 1.7711844e-10 4.0252953e-12 1.4242614e-10 1.122091e-11 5.5967836e-10 4.480026e-10 4.0654573e-11
3.122417e-10 6.78174e-10 6.963738e-10 1.9204187e-10 1.3556481e-10 1.2352452e-10 1.1698096e-11 3.4195674e-13
2.6943808e-10 7.876842e-10 1.3938081e-09 4.7049763e-11 2.618082e-12 1.3921143e-10 1.8361942e-09 1.0582899e-09
1.0872896e-10 1.2604552e-11 1.8867537e-10 7.9230594e-10 3.144362e-10 9.003302e-11 8.219625e-11 3.355464e-09
2.7394038e-11 1.0639482e-10 6.729335e-11 4.6577503e-10 5.8602266e-13 2.2994607e-08 1.8333084e-10 9.918776e-10
5.045283e-13 1.2054672e-09 1.5410054e-10 4.1772757e-10 1.4884985e-10 3.076305e-10 1.0625127e-12 3.9165005e-10
1.0062438e-10 2.535896e-10 2.6833402e-10 3.747919e-11 5.5963907e-11 1.0113359e-09 3.473902e-12 5.0032223e-10
6.443532e-11 6.3902483e-10 1.5275222e-09 1.0000011e-09 6.4840994e-11 2.0786511e-10 1.694422e-10 4.3881695e-10
1.0580117e-10 2.8194415e-12 1.8054101e-10 5.2468906e-12 5.814681e-10 5.2058335e-10 5.1489767e-08 1.8411483e-09
2.456555e-09 1.997757e-10 4.9575975e-11 2.8289957e-11 2.3809121e-11 2.0451483e-11 3.1064957e-12 1.2396003e-11
3.526251e-10 3.655305e-10 9.5090213e-11 2.1659337e-10 2.1551158e-10 1.1006709e-10 1.7833725e-10 6.3530424e-11
1.302117e-09 1.2325793e-10 9.980416e-11 6.8163704e-11 1.665972e-10 2.0693591e-10 4.0470877e-10 6.231378e-11
1.0389475e-10 1.0295106e-12 9.47936e-12 4.3663886e-10 1.6026118e-09 4.1359632e-10 5.07344e-10 5.711848e-12
1.288089e-10 9.0825375e-10 1.0155113e-10 1.4635149e-10 8.3506724e-10 2.1259063e-09 9.792888e-12 1.4820963e-10
8.916015e-13 3.6771263e-11 3.2671152e-10 5.1679017e-10 1.9902871e-10 4.265804e-11 2.9016045e-10 3.8979736e-10
1.4685796e-10 1.190616e-10 1.4025797e-09 7.6415897e-13 4.3700682e-11 1.1593903e-09 2.0940953e-10 1.8419005e-10
7.5449336e-10 5.545189e-13 7.6897225e-11 2.8944066e-11 3.918099e-10 7.776784e-08 1.5260292e-13 1.12543516e-10
1.9833929e-10 5.403321e-10 2.5189531e-12 1.7255742e-11 2.8807887e-12 1.2314534e-10 2.9100429e-11 1.6673364e-10
2.9797018e-10 1.4801542e-10 1.2131306e-10 6.86735e-11 3.1976358e-10 1.7224315e-10 8.0331124e-11 3.164529e-12
1.3408431e-10 4.9767773e-10 2.816236e-10 2.4532446e-10 5.8621336e-10 1.2320501e-08 3.9386506e-12 2.1455925e-10
4.004759e-10 8.489422e-10 4.2204137e-10 4.5631717e-11 5.534473e-11 1.0247269e-10 1.2709936e-12 3.109754e-11
1.1644458e-10 2.7723013e-10 2.1036228e-10 4.469539e-10 3.603154e-10 4.8783094e-10 2.8826044e-10 6.3641245e-11
4.993074e-13 1.2135266e-10 4.8194827e-11 1.4033541e-11 2.2131076e-11 1.4127047e-10 1.0402815e-09 4.322627e-10

exp_avg f4 [64]
00000000: 9d36 61b6 9c81 e1ba 82c4 0839 634c 5aba
00000010: 93a8 40b7 d15a f6b9 1871 0cb6 1bff 4339
00000020: 1ae6 093b 68a0 bdb9 d8ef 06b6 1080 b8b9
00000030: 54e6 d3b9 e5cc 5637 cf06 df36 3437 91b7
00000040: f840 ab39 c7b3 93b7 5a50 fdb6 5fe7 3b3a
00000050: ee4b 1d37 2cac a8ba 3100 9a37 a3a5 9d3a
00000060: e451 cfba 2221 443a 817d b3ba 5623 5836
00000070: 8546 3e37 3c05 9335 8c5f b836 f999 5ab7
00000080: 1b33 18b7 2b34 30b7 4c57 da36 af49 7ab7
00000090: 311a da34 e8f7 f43a a4d7 0139 52b4 7039
000000a0: 9e79 98ba c2d8 b5b6 5faf b4ba 0617 cd3a
000000b0: 0f3a 69b9 4960 3437 f773 ad3a 8ad0 a234
000000c0: 20b6 873a 84df 8c37 9ebd e336 61c4 8ab8
000000d0: f45e bb36 4317 8bb6 487d aa39 62b7 063b
000000e0: 7a15 8237 86b5 30ba 8ab7 68ba 8cc5 a4ba
000000f0: 7625 8036 2116 a43a 6f03 9d3a d93f 0637
-3.3559402e-06 -0.0017204764 0.00013043176 -0.00083274225 -1.1483341e-05 -0.0004698844 -2.0927455e-06 0.00018691683
0.0021041692 -0.000361684 -2.0107163e-06 -0.0003519063 -0.00040416664 1.28031e-05 6.6467105e-06 -1.7311053e-05
0.00032664067 -1.7607481e-05 -7.5493417e-06 0.0007167961 9.375608e-06 -0.0012868694 1.835832e-05 0.0012027513
-0.0015817252 0.0007481744 -0.0013694019 3.2207076e-06 1.1341302e-05 1.0953877e-06 5.4947504e-06 -1.3029662e-05
-9.071805e-06 -1.0502564e-05 6.507069e-06 -1.4918317e-05 4.062472e-07 0.0018689604 0.00012382731 0.00022955358
-0.0011632924 -5.4194543e-06 -0.0013785175 0.001564712 -0.0002224224 1.0751254e-05 0.0013233413 3.0326584e-07
0.001035396 1.6793383e-05 6.7872015e-06 -6.616931e-05 5.5840883e-06 -4.145231e-06 0.0003251827 0.0020556082
1.5507208e-05 -0.0006740916 -0.0008877447 -0.0012571081 3.8190583e-06 0.0012518802 0.0011979173 8.001888e-06

exp_avg_sq f4 [64]
00000000: 4d22 eb31 a3ec bf36 b577 4135 5b7d 9e35
00000010: 2b96 bd30 8cae a435 dfc1 db2e 504a a335
00000020: 4076 0237 4574 2b35 8e6e fc2d ca9a 0635
00000030: 1f11 0a35 be51 4b32 0b51 b92e 78ba 4031
00000040: 7b0a 3834 6bc3 bd30 43a6 4c30 b1b9 a935
00000050: 7b54 6a2f 4188 4f36 f831 4c30 de88 1436
00000060: aa6d 9336 f016 6635 a5ad 7336 32a4 5931
00000070: 9930 3230 4c4a 9a2f 7684 1630 d043 ca2f
00000080: dae5 1431 a1e0 462f 5ebc ba2e bf0a f62f
00000090: dc82 f42e 6c39 b336 8755 5634 aa6c 0f35
000000a0: 6302 1836 d2da d12e 52ea 8036 6db7 8836
000000b0: fec1 4a35 014c 792f 0d7e 4336 130f 2e2d
000000c0: 359b 2036 380f 5631 2cd5 b62f 8905 9834
000000d0: 1093 852f 3603 8d2e f71f ba35 dea1 f936
000000e0: ec0b 0130 7c7c 9635 bd6c b835 f388 4836
000000f0: 070a 212e 1446 3a36 3355 3536 4d7a 0c35
6.8432997e-09 5.7197917e-06 7.20723e-07 1.1808401e-06 1.379424e-09 1.2269752e-06 9.9934054e-11 1.2166074e-06
7.776136e-06 6.387166e-07 2.869818e-11 5.014414e-07 5.143392e-07 1.1834741e-08 8.427222e-11 2.8045672e-09
1.7140148e-07 1.3807101e-09 7.445104e-10 1.2645525e-06 2.131219e-10 3.0924714e-06 7.428578e-10 2.2133386e-06
4.393708e-06 8.5715055e-07 3.6310896e-06 3.167099e-09 6.4825084e-10 2.8065228e-10 5.475792e-10 3.679177e-10
2.166749e-09 1.80878e-10 8.4917615e-11 4.4754775e-10 1.1119081e-10 5.3413005e-06 1.9961418e-07 5.342978e-07
2.2651154e-06 9.54309e-11 3.8419757e-06 4.0744694e-06 7.553316e-07 2.267342e-10 2.9130636e-06 9.894102e-12
2.39322e-06 3.114975e-09 3.3257075e-10 2.8316234e-07 2.4297053e-10 6.412508e-11 1.3867383e-06 7.439622e-06
4.694687e-10 1.1212101e-06 1.3740715e-06 2.9882037e-06 3.6616068e-11 2.775695e-06 2.7020694e-06 5.2332035e-07

exp_avg f4 [32, 64]
00000000: d0b7 b0b8 ada6 d33c 8ef1 dc3c 0bde 863c
00000010: f043 e4b8 ad94 093d b397 53b9 b86f bd3c
00000020: 06fb 023c a373 b73c f163 a8b9 2903 043d
00000030: c6c3 c63c e3ec 9eb8 4852 9cb9 f4ed 4fb8
00000040: 3b7e 553c d1f9 95b8 0106 2cb8 95f5 d83c
00000050: a07c b7b9 4b4a d13c 72c7 4cb9 629d 3d3b
00000060: 73db b93c f676 243c fbd4 f13c 452e 0cb9
00000070: 5fe8 56b9 1808 0bb9 a2f7 27b9 941b 9bb9
00000080: 261e 9cb8 291d 00b9 f678 acb9 ffa4 93b9
00000090: 3376 29b9 854f 65ba 2ca5 b43c 7e0f cc3c
000000a0: 703f 4e3c 06f9 89b9 6776 df3c 36a3 fc3b
000000b0: 38f3 dc3c 2551 54b9 99df 353c cfd8 a0b8
000000c0: bd0c c13c 317c b4b8 e122 9ab9 aeb7 f03c
000000d0: e184 c6b9 7994 96b9 d00e de3c 1095 053c
000000e0: 57ca 9ab9 5bd9 ba3c 9e18 613c 6b8c d23c
000000f0: 2843 66b9 9209 983c 15dd b63c 9b19 0c3d
00000100: 6c2d b338 29a4 d5bc d3cd dfbc 70f3 87bc
00000110: 48f7 e738 161f 0bbd 2867 5639 e0ed bfbc
00000120: 8cee 05bc ba78 b9bc 00a4 aa39 b374 05bd
00000130: 7fcc c8bc b489 a038 44e9 9d39 9fce 5338
00000140: 8a51 59bc 9c9f 9838 783d 2f38 5a32 dcbc
00000150: 3b7d b939 9057 d3bc a8c2 4e39 ebb8 45bb
00000160: 506f bbbc 03e4 27bc 8342 f4bc bdd4 0d39
00000170: 6734 5939 77b5 0c39 aadc 2939 4063 9d39
00000180: ce86 9e38 d4ab 0239 0744 ae39 02c8 9539
00000190: 9889 2b39 d8bd 513a 3106 b7bc 24cb cebc
000001a0: baa2 4fbc 11ff 8b39 56ae e1bc d57b 01bc
000001b0: a483 dfbc b430 5639 988d 39bc 5893 a238
000001c0: 8203 c4bc 5cb7 b538 09e4 9b39 8faf f3bc
000001d0: e8c8 c839 51c2 9839 2400 e1bc eac5 08bc
000001e0: 6653 9c39 44ab bcbc 9caf 62bc 809b d4bc
000001f0: a3ba 6839 018d 9abc 90b3 b9bc d0d8 0dbd
00000200: 4420 c4b2 2507 a036 7523 e236 b8c3 2b36
00000210: f75b 0eb3 6a86 f436 caf5 5eb3 7970 c436
00000220: abff 6936 7a3f 9f36 9086 b3b3 1191 e436
00000230: 8f13 a136 d244 85b2 997b 7eb3 02a2 9ab2
00000240: 7722 9736 7183 d3b2 a9fa 87b2 3850 0037
00000250: 0e1f 9eb3 453d a336 d2e0 1fb3 3133 2236
00000260: 6aca 7936 ba67 8936 ac5e bf36 2112 04b3
00000270: 4f12 34b3 e5f4 03b3 c7c7 17b3 a56f b5b3
00000280: d0c3 c6b2 cf68 46b3 8a71 8db3 83f1 a9b3
00000290: 849d 23b3 86cf c335 d5eb bd36 4cff da36
000002a0: 6bce d935 58d0 a0b3 e9b6 af36 33ae 7936
000002b0: 55ca cb36 3d77 16b3 e486 9036 438b 8db2
000002c0: b7ef eb36 eb02 36b2 bb84 8cb3 871b ea36
000002d0: 057c b3b3 2a93 adb3 bb76 ea36 30b8 7b36
000002e0: 32fe 72b3 1d69 9236 b224 ff35 b050 a336
000002f0: eadd 42b3 c926 c936 8121 e136 8771 0b37
00000300: dcb5 82b3 01d4 4e37 b0d7 9637 d4b9 d736
00000310: be38 bfb3 1db4 a137 d04f 15b4 2a67 8237
00000320: 728f 2137 cc5a 5137 31a0 70b4 3c04 9737
00000330: a2e3 5237 8cc4 2bb3 9dac 25b4 1e48 54b3
00000340: 3e0a 4e37 c9e2 90b3 5fe7 3ab3 0961 ad37
00000350: c124 4fb4 eb3e 5337 2693 ceb3 4a69 e336
00000360: dd3f 1f37 e120 3d37 2ba9 7a37 db72 afb3
00000370: eb55 eab3 7051 aeb3 8207 c8b3 e682 74b4
00000380: 0a77 86b3 8122 09b4 00b8 38b4 53d7 65b4
00000390: 4d17 d9b3 0060 9136 473b 7f37 df3d 9237
000003a0: aed9 8436 b8e0 58b4 98b3 6337 200d 2d37
000003b0: 0b95 8637 3788 c1b3 dfd9 4637 ddbd 39b3
000003c0: 2706 9f37 851a e2b2 7003 3ab4 d29d 9b37
000003d0: 9833 6db4 46e8 68b4 0b92 9c37 e4fd 2d37
000003e0: f38c 1db4 ac09 3e37 6a1e 9f36 9abe 5337
000003f0: ed12 ffb3 5ace 8837 c216 9937 125d b937
-8.426572e-05 0.025836313 0.026970651 0.0164633 -0.000108845416 0.033589054 -0.0002017904 0.02312456
0.007994419 0.022394007 -0.0003211792 0.032229576 0.024263274 -7.578151e-05 -0.00029815943 -4.9574257e-05
0.013030584 -7.1514056e-05 -4.1013587e-05 0.02648429 -0.00034997333 0.025548121 -0.00019529255 0.0028932919
0.02268765 0.010038128 0.029520502 -0.00013368677 -0.00020495195 -0.00013259088 -0.00016018611 -0.0002958445
-7.444275e-05 -0.00012217894 -0.0003289652 -0.00028160957 -0.00016161129 -0.0008747506 0.022051416 0.024909731
0.012588367 -0.00026316213 0.027278138 0.007709886 0.026971444 -0.00020248124 0.011100673 -7.669778e-05
0.023565644 -8.606201e-05 -0.00029399156 0.02938446 -0.00037864505 -0.0002872085 0.027106673 0.008153215
-0.00029523924 0.022808721 0.013738779 0.025701722 -0.00021959527 0.018559251 0.022322217 0.034204107
8.5438456e-05 -0.026079254 -0.027319824 -0.016595572 0.00011060998 -0.033965193 0.00020447059 -0.023428857
-0.00817455 -0.022640575 0.00032547116 -0.032581996 -0.024511574 7.655044e-05 0.0003011917 5.049875e-05
-0.013264069 7.2776544e-05 4.17805e-05 -0.026879478 0.00035379254 -0.025798589 0.00019718206 -0.0030170034
-0.022880226 -0.010247233 -0.029816872 0.00013526059 0.00020714254 0.00013419041 0.000161993 0.0003001932
7.5591364e-05 0.00012461777 0.0003323855 0.00028568512 0.00016359088 0.0008001006 -0.02234182 -0.02524335
-0.012673074 0.00026702185 -0.02754895 -0.007903059 -0.02728445 0.00020426774 -0.0113252625 7.752207e-05
-0.023927454 8.664906e-05 0.00029733803 -0.029746799 0.0003829666 0.00029136476 -0.027465887 -0.008347968
0.00029816775 -0.023030885 -0.013835814 -0.025953054 0.00022194772 -0.018866064 -0.02266863 -0.034630597
-2.2832076e-08 4.7692033e-06 6.7394526e-06 2.559491e-06 -3.3145593e-08 7.2874145e-06 -5.1911947e-08 5.8543487e-06
3.4868524e-06 4.745959e-06 -8.359814e-08 6.8118175e-06 4.800451e-06 -1.5514534e-08 -5.9251395e-08 -1.8001632e-08
4.504163e-06 -2.4623406e-08 -1.5830055e-08 7.648072e-06 -7.363097e-08 4.8649113e-06 -3.7224545e-08 2.4169678e-06
3.7221712e-06 4.0949935e-06 5.703265e-06 -3.0750133e-08 -4.1926167e-08 -3.0723545e-08 -3.5339124e-08 -8.448777e-08
-2.3139279e-08 -4.619579e-08 -6.586477e-08 -7.9136065e-08 -3.8094655e-08 1.458903e-06 5.6600934e-06 6.5266267e-06
1.6227835e-06 -7.488478e-08 5.2367e-06 3.7205289e-06 6.073426e-06 -3.5033043e-08 4.3072378e-06 -1.647789e-08
7.0314522e-06 -1.0594458e-08 -6.5434016e-08 6.976948e-06 -8.357896e-08 -8.082709e-08 6.9875655e-06 3.7509126e-06
-5.6576205e-08 4.363376e-06 1.900966e-06 4.867172e-06 -4.5370975e-08 5.994782e-06 6.709423e-06 8.311478e-06
-6.086677e-08 1.2327918e-05 1.798183e-05 6.4291326e-06 -8.904452e-08 1.9276567e-05 -1.3905742e-07 1.5545247e-05
9.629746e-06 1.2478511e-05 -2.2410019e-07 1.8002575e-05 1.2569975e-05 -3.99928e-08 -1.5429619e-07 -4.9425687e-08
1.22809415e-05 -6.7467745e-08 -4.351693e-08 2.0668393e-05 -1.9291748e-07 1.2591229e-05 -9.619389e-08 6.7773844e-06
9.492008e-06 1.1272933e-05 1.4940549e-05 -8.1699646e-08 -1.09121025e-07 -8.11732e-08 -9.3145914e-08 -2.2771891e-07
-6.261514e-08 -1.2771672e-07 -1.7203274e-07 -2.1405621e-07 -1.0109088e-07 4.3325126e-06 1.5212986e-05 1.7433367e-05
3.959248e-06 -2.019832e-07 1.3572069e-05 1.0314659e-05 1.6043448e-05 -9.01204e-08 1.1852447e-05 -4.324635e-08
1.8957142e-05 -2.6321922e-08 -1.732385e-07 1.855093e-05 -2.2091115e-07 -2.1691184e-07 1.8664656e-05 1.0370717e-05
-1.4673041e-07 1.1327134e-05 4.74211e-06 1.2620958e-05 -1.18778054e-07 1.6308553e-05 1.8249619e-05 2.2097058e-05

exp_avg_sq f4 [32, 64]
00000000: 4ad9 9532 8ea0 553a 185d ca3a 4944 a539
00000010: 2179 1633 fe0a e43a 36b8 c233 dd94 8f3a
00000020: 38ef ae39 bce4 5a3a 033d 6034 a872 ca3a
00000030: f503 683a 62ce 5f33 be61 0334 2487 ba32
00000040: 7da2 4a3a 4bab a532 78fe 4d32 0b85 fd3a
00000050: e34c 4034 3eea 553a 7af3 5333 1d44 4139
00000060: eea2 003a 01a9 0b3a b954 953a 5bac 1c33
00000070: 4cc4 7e33 c3e6 0933 616a 3433 fddf 6634
00000080: 0670 a332 382f 8333 5307 2234 40fd 4634
00000090: fa5c 6033 a792 6738 30c3 983a 1949 aa3a
000000a0: 6a6f 1239 d4ff 3d34 40b6 7e3a 527e d839
000000b0: bfef a83a ead1 6233 9ae5 1c3a fd82 8432
000000c0: 03ce c33a c52b 9331 330a 0f34 b400 d03a
000000d0: d204 6c34 fdd5 5b34 e34d bf3a 7aac c939
000000e0: b38e f133 f902 433a 5aed 5f39 7aed 563a
000000f0: f241 8f33 30ec 953a b61e b33a 8e8e 0b3b
00000100: dc35 9c32 e64d 563a 7392 cb3a 0fb1 a739
00000110: fa45 1733 b292 e43a 7312 c333 c6e6 8e3a
00000120: 0273 ae39 fa8b 593a b791 5f34 3a14 ca3a
00000130: ba08 683a 9499 0534 c5a1 0434 1b72 9732
00000140: 6f75 493a 8d69 b132 933e 2a32 5a8a ff3a
00000150: 5c17 4134 d7e3 553a e591 5533 3fb8 4539
00000160: 1786 003a 3b9a 0a3a 0812 963a 5005 1b33
00000170: 8b6d 7f33 9d8b 0c33 9a25 3733 0139 6734
00000180: 401d b232 dfbd 8233 7e7a 2334 b178 4734
00000190: 0745 6133 4f8c 6638 32b0 983a f1a4 a93a
000001a0: 1e30 0f39 619f 3d34 b94d 7f3a 85f2 d939
000001b0: 9af5 a83a 8a13 6533 b77f 1c3a 1709 8732
000001c0: 0c08 c33a 5604 9331 7b02 0f34 8e0d d03a
000001d0: 913a 6d34 cf7a 5c34 c4d1 be3a 2019 c939
000001e0: e3ef f433 064b 433a 54c1 6439 5756 563a
000001f0: 062b 9033 5c2a 963a 449a b23a b2a2 0b3b
00000200: f890 982b d2a6 2932 af63 b332 1302 4732
00000210: 9ade 1b2b 9bfb 7d32 5d37 862b 6761 b931
00000220: 841e d42e 85de 0832 6fba a92b 0835 2b32
00000230: d27d 4a32 f866 192f d64b 042c 9b7c 822e
00000240: 725c 5532 ef12 3e2c 3f3e 292d 753f 1733
00000250: d822 0a2c c9eb f831 010d 3a2b a4b0 b331
00000260: 9f61 d930 3fe7 6b31 25bf 9e32 eb3f c62d
00000270: 6f1c 342b df72 972b 5323 d22c e9f1 df2b
00000280: 3fd9 142d a51e fa2a e163 0e2c 010e b32b
00000290: 77a9 582b 017a 642f 3b5d 7f32 5e9c 2131
000002a0: 2fac 1831 7890 f72b 76a2 4332 3326 ce31
000002b0: 8bf3 6f32 7804 bc2b e7e7 1532 f039 272b
000002c0: 2960 af31 14b4 fc29 9592 772b 671e 3232
000002d0: cd7f 0e2c 8ede 172c 088b 8531 7afa 0030
000002e0: dba2 0d2c 622b 3332 bfa8 1032 4347 fc31
000002f0: c02e 182b d803 9932 2280 1832 b04a 8732
00000300: 0543 b02b 0eb2 e332 7816 5a33 5613 f332
00000310: d52c 9d2b c46e 2333 0d0d 232c f604 8432
00000320: 3f69 b32f 8cad bb32 bb6b 172c f33d e432
00000330: aca4 0133 6c7b 322f 8f8b a02c 8a46 5b2d
00000340: d3f5 0b33 635f aa2b 6de5 282c 541c af33
00000350: 40f2 a52c 0ce4 a532 f67e e12b 0376 4b32
00000360: 5d38 af31 1066 1e32 c301 3a33 c8ff 012d
00000370: 0daa cc2b f542 eb2b c06c ff2b 8f71 8e2c
00000380: 7ba2 682c 7435 792b 14bc ab2c 864e 672c
00000390: f30f dd2b 14b1 7d2f 7444 1f33 b206 0332
000003a0: a95a e131 b861 9c2c e1d1 0033 bcf3 6032
000003b0: 58ed 1833 4aa9 6a2c b28b b832 36b5 ca2b
000003c0: dbe8 8132 9999 952a 400d 1b2c c8bc f332
000003d0: 02f8 b02c 59a8 bd2c 2822 4b32 8b66 1b30
000003e0: 7fa9 ab2c d40f ec32 97ee c232 c5a0 a832
000003f0: 6a75 b72b 709c 3133 d991 ce32 d55d 2933
1.7444695e-08 0.00081492297 0.0015439121 0.0003152213 3.5034763e-08 0.0017398295 9.067337e-08 0.0010954399
0.00033366098 0.0008350124 2.0883822e-07 0.0015445547 0.00088506873 5.2108938e-08 1.2235884e-07 2.1714705e-08
0.0007729901 1.9286423e-08 1.199043e-08 0.0019342018 1.7909365e-07 0.000816021 4.9348706e-08 0.00018431288
0.0004907091 0.0005327613 0.0011393047 3.6478337e-08 5.9317514e-08 3.2107675e-08 4.2006267e-08 2.1501906e-07
1.902664e-08 6.108752e-08 1.509009e-07 1.8532319e-07 5.2238626e-08 5.5211272e-05 0.001165485 0.0012991756
0.0001396515 1.7695066e-07 0.00097164884 0.00041292846 0.0012888833 5.281064e-08 0.0005985141 1.5426389e-08
0.0014938716 4.283239e-09 1.3321623e-07 0.001586935 2.1980966e-07 2.0473813e-07 0.0014595356 0.00038466213
1.1248394e-07 0.00074391026 0.00021355358 0.0008198839 6.670952e-08 0.0011438187 0.0013665769 0.0021294686
1.8185283e-08 0.000817506 0.0015531316 0.0003198464 3.522107e-08 0.0017438738 9.083751e-08 0.0010902516
0.00033273554 0.0008298751 2.0821504e-07 0.0015417405 0.0008851398 1.2442462e-07 1.235231e-07 1.7630603e-08
0.00076850405 2.0653511e-08 9.90953e-09 0.0019496188 1.7983024e-07 0.0008159256 4.9725617e-08 0.00018856021
0.00049027934 0.00052872644 0.0011449466 3.609358e-08 5.9471443e-08 3.2723268e-08 4.2642206e-08 2.153429e-07
2.0735229e-08 6.088134e-08 1.522512e-07 1.8577227e-07 5.2449675e-08 5.4966946e-05 0.001164919 0.0012942833
0.00013655468 1.7659978e-07 0.00097390596 0.00041570156 0.0012890578 5.3335988e-08 0.0005969959 1.5720202e-08
0.0014879717 4.278756e-09 1.3318815e-07 0.001587318 2.2093651e-07 2.0533774e-07 0.0014558365 0.00038356427
1.14057706e-07 0.0007449839 0.00021815795 0.0008176318 6.7133485e-08 0.0011456716 0.0013626297 0.002130669
1.0840486e-12 9.875025e-09 2.0883673e-08 1.1583796e-08 5.5375984e-13 1.4783747e-08 9.536639e-13 5.395282e-09
9.6460645e-11 7.966837e-09 1.2059918e-12 9.965568e-09 1.1786556e-08 1.3951851e-10 1.8800426e-12 5.93385e-11
1.2419251e-08 2.7011134e-12 9.620359e-12 3.521514e-08 1.9630322e-12 7.2445556e-09 6.609852e-13 5.2296674e-09
1.5816574e-09 3.432845e-09 1.8480543e-08 2.253838e-11 6.3988306e-13 1.0761078e-12 5.9724808e-12 1.5912247e-12
8.461064e-12 4.4430185e-13 2.0234858e-12 1.2722602e-12 7.6973795e-13 2.0779824e-10 1.4864152e-08 2.3517468e-09
2.2216786e-09 1.7590504e-12 1.1387433e-08 5.999732e-09 1.3967006e-08 1.3359444e-12 8.72567e-09 5.9410723e-13
5.1041025e-09 1.1222287e-13 8.795545e-13 1.0367876e-08 2.0250357e-12 2.1581933e-12 3.8866155e-09 4.692208e-10
2.0127708e-12 1.0429035e-08 8.420272e-09 7.342267e-09 5.4066127e-13 1.7813292e-08 8.8766985e-09 1.5750032e-08
1.2524154e-12 2.6507248e-08 5.0777516e-08 2.8297716e-08 1.1167964e-12 3.8052136e-08 2.3170938e-12 1.5369078e-08
3.2634692e-10 2.1848585e-08 2.1518193e-12 2.6570865e-08 3.018492e-08 1.6232854e-10 4.5629676e-12 1.24643715e-11
3.2587035e-08 1.2105702e-12 2.4001593e-12 8.1542254e-08 4.716477e-12 1.9312232e-08 1.602245e-12 1.1842988e-08
5.099578e-09 9.220017e-09 4.3308102e-08 7.389596e-12 1.454227e-12 1.6716339e-12 1.8149024e-12 4.0484903e-12
3.3059378e-12 8.853675e-13 4.880993e-12 3.2870664e-12 1.5707421e-12 2.3073127e-10 3.708233e-08 7.626726e-09
6.5586687e-09 4.4446356e-12 2.9993206e-08 1.3093935e-08 3.560612e-08 3.3347374e-12 2.1483945e-08 1.4403259e-12
1.5123467e-08 2.6574297e-13 2.203418e-12 2.8374771e-08 5.0297553e-12 5.3903934e-12 1.1823921e-08 5.6534394e-10
4.87893e-12 2.7481214e-08 2.269307e-08 1.9630884e-08 1.3035521e-12 4.1353303e-08 2.404788e-08 3.943372e-08

exp_avg f4 [32]
00000000: 528a 023c 5341 04bc 06ed 0536 a1e7 b336
00000010: f85b 5a35 877e a536 97a8 8d36 3856 ee36
00000020: 8f57 2037 d76f c137 a8d7 8f35 34c8 5a35
00000030: 7477 c336 a372 0236 7be0 0937 9267 8236
00000040: 51cc 2f37 4794 9b36 1d64 8e36 2a78 f734
00000050: 19c3 7537 e878 d236 1b8d 0037 fece 9d36
00000060: 7040 1a36 ac96 8c36 d831 e936 ec7c c835
00000070: d468 0b39 7139 2336 3465 5136 f0a3 0535
0.007967548 -0.008072215 1.995651e-06 5.361581e-06 8.134516e-07 4.932113e-06 4.221754e-06 7.10299e-06
9.5571295e-06 2.3059472e-05 1.0717094e-06 8.150266e-07 5.825359e-06 1.9438237e-06 8.218102e-06 3.886359e-06
1.0478384e-05 4.6366217e-06 4.2435845e-06 4.6094766e-07 1.4648563e-05 6.272563e-06 7.662248e-06 4.7030617e-06
2.2985296e-06 4.1898656e-06 6.9497437e-06 1.4937518e-06 0.00013295125 2.4322328e-06 3.1202335e-06 4.978492e-07

exp_avg_sq f4 [32]
00000000: d213 1839 9918 2a39 866c 9932 f8d7 0333
00000010: 9f89 9132 4eef e132 2cf9 1f33 d91d 2033
00000020: 3dec 0d33 d133 8034 b580 e831 86a6 0032
00000030: 9397 dd32 4460 8032 a35e 1233 99ad 9c32
00000040: e988 7033 cfeb c832 3c82 4a32 2a6c ca31
00000050: bd6e 9e33 707a a532 7c75 4c33 7042 aa32
00000060: 7b45 5a32 6042 8d32 4463 4333 16f7 4132
00000070: c1bb c836 684e 9832 bbb6 8d32 5de4 a631
0.00014503233 0.00016221627 1.7860895e-08 3.0697237e-08 1.6942804e-08 2.630227e-08 3.7246693e-08 3.728005e-08
3.3043978e-08 2.387956e-07 6.766721e-09 7.488444e-09 2.5796714e-08 1.4944938e-08 3.4079346e-08 1.8239733e-08
5.6003874e-08 2.3390298e-08 1.1787559e-08 5.8912706e-09 7.3775915e-08 1.9264206e-08 4.7604303e-08 1.9820817e-08
1.2705068e-08 1.6444744e-08 4.5492257e-08 1.1290259e-08 5.982322e-06 1.7730784e-08 1.6497657e-08 4.8571978e-09
