models/epoch=9-step=130-v1.ckpt (torch, 623072 bytes, 12 tensors)

classifier.0.weight f4 [64, 768]
0	0x3d8dbebc	0.06921145
1	0x3d10e4a1	0.035374288
2	0xbb74d1c5	-0.0037356478
3	0xbad496ce	-0.001621926
4	0xbdab6b1d	-0.083700396
5	0x3cb2d5c3	0.021830445
6	0xbc684ee1	-0.014178962
7	0xbbe530cf	-0.006994344
8	0x3d36a177	0.04458758
9	0x3d3cff92	0.04614217
10	0x3aa122ef	0.0012293736
11	0xbbd38341	-0.0064548557
12	0xbda59657	-0.08085316
13	0x3b2c1e2d	0.0026263103
14	0xbce2ba40	-0.027676702
15	0x3cbdd962	0.023174945
16	0xbbdee5b1	-0.0068022837
17	0x3c3987be	0.011323867
18	0xbbb5af56	-0.0055445833
19	0x3d127992	0.03576047
20	0x3c68f477	0.014218441
21	0x3cdd43f6	0.027009945
22	0x3ce217fb	0.027599325
23	0x3d0160a1	0.031586293
24	0xbd5fb23f	-0.054613348
25	0xbce3e9bd	-0.027821416
26	0x3d00633e	0.031344645
27	0xbb3ecc36	-0.0029113418
28	0xbd608806	-0.054817222
29	0xbd4d02f8	-0.05005166
30	0x3d029c01	0.03188706
31	0x3c24a85b	0.010049905
32	0x3cd98d81	0.026556732
33	0xbcf0d99e	-0.029400643
34	0x3d4bc14d	0.049744893
35	0xbcc0680b	-0.023487112
36	0xbd3a06cd	-0.045416642
37	0xbc9870fb	-0.01860856
38	0x3cc249dc	0.02371686
39	0x3d490e36	0.04908582
40	0xbd691f28	-0.05691448
41	0x3d6f4b66	0.058421515
42	0xbd130d76	-0.03590151
43	0x3c064959	0.008196198
44	0x3a450430	0.00075155776
45	0x3c1bd190	0.009510413
46	0xbd13e85b	-0.036110263
47	0xbd83f144	-0.06442502
48	0xbd730e42	-0.05933977
49	0xbced75d1	-0.028986843
50	0x3d41cc6a	0.047314085
51	0xbca11c1c	-0.019666724
52	0xb99b26d0	-0.0002959282
53	0x3c8582cb	0.016297719
54	0x3d173450	0.036915123
55	0x3cefa391	0.0292528
56	0x3cf03726	0.029323172
57	0x3c9aae5a	0.018881965
58	0x3da5d9ab	0.080981575
59	0x3d32f22b	0.04368798
60	0x3d0b34f4	0.033986047
61	0xbc8d4d94	-0.017248906
62	0xbd3cd142	-0.046098
63	0x3ca1c8a0	0.019748986
64	0xbcae964d	-0.021311903
65	0x3b9e7969	0.0048362506
66	0x3c5092a4	0.012730274
67	0x3cd9ce4b	0.026587626
68	0xbd7fe4dc	-0.062474117
69	0x3c05c216	0.0081639495
70	0xbd07fc0b	-0.03319935
71	0xbc313edf	-0.010818212
72	0xbbcf3851	-0.006323852
73	0xbb4bedbe	-0.0031117047
74	0x3b8328d2	0.004002669
75	0xbd38fdde	-0.04516398
76	0x3d74a0a0	0.059723496
77	0xbb7a2fc7	-0.003817545
78	0x3b6adc66	0.0035836934
79	0x3c8406cb	0.01611652
80	0x3cc209bc	0.023686282
81	0x3c670ec1	0.014102639
82	0xbbd15c73	-0.0063891946
83	0xbd31e891	-0.043434683
84	0xbd4a3015	-0.04936226
85	0xba7c857c	-0.0009632928
86	0x3c372fba	0.0111808125
87	0x3ca3cdfc	0.019995682
88	0x3d0f5eba	0.035002448
89	0x3d1d78ec	0.0384454
90	0xbcfcba3f	-0.030850528
91	0x3cbcd401	0.02305031
92	0xbb261265	-0.0025340554
93	0x3cfcb0b8	0.030845985
94	0x3c15b7f3	0.009138095
95	0x3c3d9b31	0.011572645
96	0x3d372e20	0.044721723
97	0xbd756050	-0.059906304
98	0x3c9b0d29	0.018927174
99	0x3d3685d0	0.044561207
100	0x3ce8f01e	0.02843481
101	0x3c2faea5	0.010722791
102	0x3b3952fe	0.0028278227
103	0xbd2301fd	-0.039796818
104	0x3d80fbe9	0.06298048
105	0xbdaac3ae	-0.08338104
106	0x3cba8efd	0.02277326
107	0xbd417c07	-0.047237422
108	0x3caa43e1	0.02078432
109	0xba18ff76	-0.00058364065
110	0xbab64bc7	-0.0013908081
111	0x3d85dfe6	0.06536846
112	0x3c84d949	0.01621689
113	0xbca5df65	-0.020248124
114	0xbd1c84cc	-0.038212582
115	0x3d1b4ccf	0.037915047
116	0xbc81d98f	-0.01585081
117	0xbcd3878c	-0.02582147
118	0x3c5bd2cc	0.013416957
119	0x3d560752	0.052253075
120	0xbc251630	-0.010076091
121	0x3c2d667b	0.010583515
122	0x3c00cea9	0.007861772
123	0xbd8264d3	-0.06366887
124	0xbcce13e1	-0.025155963
125	0x3d6370ab	0.05552737
126	0x3d129ca8	0.03579393
127	0xbd41d5a3	-0.04732288
128	0x3d0de8e2	0.034645922
129	0x39ebcb1c	0.0004497402
130	0x3d4d8acf	0.050181206
131	0x3d134ee3	0.035963904
132	0xbc846cb7	-0.01616512
133	0xbc6c2a58	-0.014414392
134	0x3c3e11c2	0.0116009135
135	0x3d058e2c	0.03260629
136	0x3d8858a1	0.066575296
137	0x3dab7a19	0.08372898
138	0x3cf8ea3b	0.030385127
139	0xbdb4f4fb	-0.08835789
140	0xbd816500	-0.06318092
141	0xbbe27955	-0.0069114366
142	0xbcb37e6e	-0.021910872
143	0x3d3eb9bb	0.046563845
144	0x3ba35d15	0.0049854615
145	0x3d3dd531	0.046345893
146	0x3bfc5556	0.0077006025
147	0x3c5c53fe	0.01344776
148	0xbc83bd1b	-0.016081383
149	0x3d756039	0.05990622
150	0xbd33f5a1	-0.04393542
151	0x3d638cab	0.055554073
152	0x3c5b5633	0.013387251
153	0xbd646fcf	-0.05577069
154	0x3d1ad07e	0.03779649
155	0x3d1f5629	0.038900528
156	0x3d28028c	0.041018054
157	0xbd8c563d	-0.06852386
158	0xbc558391	-0.013031856
159	0x3c9ef5bd	0.019404287
160	0x3b363ab8	0.0027805995
161	0x3cdc2925	0.026875088
162	0xbd7f8cf9	-0.0623903
163	0xbd246a6e	-0.04014056
164	0x3d927b15	0.07152382
165	0x3d1f15b4	0.038839057
166	0x3cd072b4	0.02544532
167	0xbc3cbeb4	-0.011520077
168	0x3c80f707	0.015742792
169	0x3b4169ea	0.0029512593
170	0x3c47904a	0.012180397
171	0xbcd60d50	-0.026129395
172	0x3d676e2d	0.056501556
173	0xbd8d4237	-0.06897395
174	0x3b572836	0.0032830364
175	0xbc16d070	-0.009204969
176	0x3c9ee463	0.019396013
177	0x3c7da373	0.015480864
178	0x3d5bbe54	0.053648308
179	0xbd290f23	-0.0412742
180	0xbbdda0e9	-0.0067635668
181	0x3d256d20	0.040387273
182	0xbc73cfde	-0.014881102
183	0x3d97702c	0.07394442
184	0xbd8e2aa1	-0.069417246
185	0xbd5a1783	-0.05324508
186	0x3ccbee7f	0.024893997
187	0xbd5118df	-0.05104911
188	0x3c5a5586	0.013326054
189	0x3c21b014	0.00986864
190	0xbd29a9a8	-0.041421562
191	0xbd6f565d	-0.05843197
192	0x3c2788ca	0.010225484
193	0xbb88042a	-0.004150887
194	0xbb890075	-0.0041809627
195	0x3ccbecd6	0.024893206
196	0xbcd18635	-0.02557669
197	0xbd1682f3	-0.036745977
198	0x3d208313	0.039187502
199	0x3cd5dc97	0.026106162
200	0xbc5a0ff2	-0.013309466
201	0x3dbd2588	0.09235674
202	0x3c452eb7	0.0120350635
203	0x3c756f7f	0.014980196
204	0xbc96ee8c	-0.018424295
205	0x3cb9a1ac	0.022660099
206	0x3cce767a	0.025202978
207	0x3d162955	0.03666051
208	0xbc8022b2	-0.015641544
209	0x3c327fe2	0.010894747
210	0xbcc1ae3c	-0.023642652
211	0xbc90a7f1	-0.017658206
212	0xbd1a2ab8	-0.037638396
213	0xbcf25635	-0.029582122
214	0x3d07217c	0.032990918
215	0x3d24e2c4	0.040255323
216	0x3c5c707c	0.013454553
217	0xbc9fc26b	-0.019501885
218	0x3d463547	0.048390653
219	0xbd1f3da3	-0.03887714
220	0xbb458df3	-0.0030144423
221	0x3ce59244	0.028023846
222	0xbc3b2f0e	-0.011424793
223	0xbaf52ddd	-0.0018705685
224	0xbd579345	-0.05263068
225	0xba8ae275	-0.0010596054
226	0xbc4d0876	-0.012514224
227	0x3d54f9bc	0.051995978
228	0xbb91e2c6	-0.0044520823
229	0xbd0f6f21	-0.03501809
230	0x3d056b6f	0.03257316
231	0x3cf09a49	0.029370444
232	0xbabb46fa	-0.001428812
233	0x3bd3ae2a	0.006459971
234	0xbc552de5	-0.01301143
235	0xbc4db54e	-0.012555433
236	0xbc86410d	-0.01638844
237	0x3b008ea5	0.0019616273
238	0xbd8bbd80	-0.06823254
239	0xbc6e9df3	-0.014564025
240	0xbc22cb53	-0.009936172
241	0x3ca5a046	0.020218026
242	0x3d631b41	0.055445913
243	0xbc434532	-0.011918353
244	0xbb8c0520	-0.004273072
245	0x3c9df714	0.019282855
246	0x3c73d729	0.014882841
247	0xbd380268	-0.04492417
248	0xbd5f4d86	-0.05451729
249	0x3d46b3b4	0.048511222
250	0x3cb0f064	0.021599002
251	0x3b69c597	0.0035670751
252	0xbd34440d	-0.04401021
253	0xbd635a85	-0.055506248
254	0x3c206922	0.009790691
255	0x3ca5fcad	0.020262087

classifier.0.bias f4 [64]
0	0x3bb27b98	0.0054468624
1	0x3ca54f9a	0.020179559
2	0xbd5f14ba	-0.054463126
3	0x3c80f566	0.015742015
4	0x3d3c2f13	0.04594333
5	0xbd02893a	-0.03186915
6	0x3d42dca9	0.04757372
7	0xbd5c171a	-0.05373297
8	0xbd01c6a5	-0.031683583
9	0xbc260686	-0.010133391
10	0xbd15ac84	-0.036541477
11	0x3c40102e	0.011722608
12	0xbc4158de	-0.011800973
13	0x3b96574d	0.004588044
14	0x3b9ac864	0.0047235955
15	0x3ce12294	0.027482308
16	0xbbcfbc57	-0.0063395905
17	0x3d1c9fd1	0.03823835
18	0x3b355255	0.0027667482
19	0xbcef103c	-0.029182546
20	0xbc2c897d	-0.010530827
21	0xbc93e662	-0.018054191
22	0x3cb5d6b9	0.022197114
23	0xbc27e45b	-0.010247315
24	0x3aa6ea9e	0.0012734716
25	0x3c7d1e87	0.015449173
26	0xbbe7be80	-0.00707227
27	0x3c475e2e	0.01216845
28	0x3ad1e167	0.001601261
29	0x3b10fff1	0.002212521
30	0xbd76c3c7	-0.0602453
31	0x3ccf41e4	0.025299974
32	0x3d67a459	0.05655322
33	0xbc4091d0	-0.011753514
34	0xbd5255cd	-0.051351357
35	0xbcde5627	-0.02714069
36	0x3b1cc7f7	0.00239229
37	0xbc6485c7	-0.013947911
38	0x3d08ed0e	0.033429198
39	0x3b3f7d1c	0.0029218858
40	0xbd38efe9	-0.04515067
41	0x3d393abc	0.04522203
42	0xbcea5c16	-0.028608363
43	0xbd42900b	-0.04750065
44	0x3d014ef2	0.03156943
45	0xbca2c518	-0.019869372
46	0x3afd8038	0.001934058
47	0xbd2e63c0	-0.042575598
48	0x3ac2d71c	0.0014865133
49	0x39586869	0.00020638261
50	0x3af0437e	0.0018330661
51	0x3c3001d7	0.010742626
52	0xbb7d28eb	-0.0038629125
53	0x3c7c43fa	0.015397066
54	0xbd34fcce	-0.044186406
55	0xbd2b4388	-0.04181245
56	0xbbc3fb46	-0.005980882
57	0xbc2d6d4b	-0.0105851395
58	0x3d24c04a	0.040222444
59	0xbd21b549	-0.039479528
60	0xbc6dd606	-0.014516359
61	0xbc03d242	-0.008045735
62	0x3d262e72	0.040571637
63	0xbcc0e30a	-0.02354576

classifier.2.weight f4 [32, 64]
0	0x3e069100	0.1314125
1	0xbdf28812	-0.118423596
2	0x3ccce20c	0.025010131
3	0x3df3bcff	0.119012825
4	0x3cf8c090	0.030365258
5	0xbe00922a	-0.12555757
6	0x3e118489	0.14210714
7	0xbe11fce6	-0.1425663
8	0xbde1b1d7	-0.110202484
9	0x3db67d6e	0.089106426
10	0xbdcebfaf	-0.100951545
11	0x3e0e0ecd	0.13872834
12	0x3e0af8b5	0.13571437
13	0x3c686fc8	0.014186807
14	0xbe04b58e	-0.12959883
15	0x3df32e60	0.1187408
16	0xbcb9aa00	-0.02266407
17	0xbcfc7c5b	-0.030821016
18	0x3e0368da	0.12832966
19	0xbde98409	-0.11402137
20	0x3d833360	0.064062834
21	0xbe041c31	-0.12901379
22	0x3ce521f8	0.0279703
23	0x3deaf0b2	0.1147169
24	0x3e0aa4b6	0.13539395
25	0xbd3efad7	-0.04662594
26	0xbcf13e59	-0.029448675
27	0xbccc6148	-0.024948731
28	0xbe110e3f	-0.1416559
29	0x3d5e997e	0.0543456
30	0xbd173e2c	-0.036924526
31	0xbda87215	-0.082248844
32	0x3cfdc55f	0.030977903
33	0xbdf6229e	-0.120183215
34	0xbd345757	-0.044028606
35	0xbd6de0ca	-0.058075704
36	0xbe01e1cd	-0.12683792
37	0xbd9f7a46	-0.07786994
38	0x3c8a3bdc	0.016874246
39	0x3d8b27a8	0.06794673
40	0xbda50b40	-0.080587864
41	0xbcb60722	-0.022220198
42	0xbda6c967	-0.08143883
43	0xbd0f7379	-0.035022233
44	0x3e0f6bc3	0.14005952
45	0x3cf8e632	0.030383203
46	0xbcb27c79	-0.021787869
47	0x3cbeb155	0.023277918
48	0xbd03aa81	-0.032145027
49	0x3d9066dd	0.070508696
50	0x3de95d7d	0.113947846
51	0xbd9761d2	-0.073917046
52	0xbd968d38	-0.07351154
53	0x3d9abcb5	0.07555524
54	0xbd8ea9a8	-0.06965953
55	0xbd80560e	-0.06266414
56	0xbe0e6a24	-0.13907677
57	0xbe27863a	-0.16359797
58	0x3e170035	0.14746173
59	0x3c07ce76	0.00828897
60	0xbc7b2551	-0.015328721
61	0x3dd45b8b	0.10369023
62	0x3db440c5	0.08801416
63	0xbcb67c1e	-0.02227598
64	0xbc9e43a1	-0.019319357
65	0xbd1c7f79	-0.038207505
66	0xbe178a4a	-0.14798847
67	0x3c429ee2	0.011878701
68	0x3deec015	0.116577305
69	0xbe07d1b9	-0.13263597
70	0x3e0b2888	0.1358968
71	0xbd780ed1	-0.060561005
72	0x3bd1c14a	0.0064012157
73	0xbd1dba45	-0.03850772
74	0xbd96af45	-0.07357649
75	0x3e0d29bb	0.1378545
76	0x3d2f30ef	0.042771276
77	0xbcb225ab	-0.021746477
78	0x3de336da	0.110944465
79	0x3d960122	0.07324435
80	0x3dfabac9	0.12242658
81	0x3e16e954	0.14737445
82	0x3d3e79a5	0.046502728
83	0xbbddf448	-0.0067735054
84	0x3d64a978	0.05582568
85	0x3e1bc161	0.15210487
86	0x3d9cc50d	0.07654772
87	0x3d2b7aa8	0.04186502
88	0xbdb1beeb	-0.08678993
89	0xbde18d97	-0.11013334
90	0xbbacbff9	-0.0052719084
91	0xbddeea98	-0.10884589
92	0x3d262c41	0.040569548
93	0x3dac4250	0.084110856
94	0xbdaf96ea	-0.085737064
95	0x3e07775a	0.13229123
96	0x3daf0b53	0.08547082
97	0x3d1acb19	0.037791345
98	0xbdb9ed06	-0.09078412
99	0x3da9e901	0.08296395
100	0xba8a524b	-0.001055309
101	0xbc981c2c	-0.01856812
102	0x3d4b70bb	0.049668055
103	0xbda20022	-0.079101816
104	0xbe0ad6b1	-0.13558461
105	0x3d923153	0.07138314
106	0xbde06b91	-0.10958017
107	0xbdea723a	-0.11447568
108	0xbd0e7f89	-0.034789596
109	0xbdf56270	-0.11981666
110	0x3dbed035	0.09317056
111	0xbe02d998	-0.12778318
112	0x3de8f29e	0.113744006
113	0x3d1d8e95	0.038466055
114	0xbab01575	-0.0013434129
115	0x3e04da34	0.12973863
116	0x3cc42164	0.023941703
117	0x3dec4742	0.11537029
118	0xbcddcc19	-0.02707486
119	0xbd597ea6	-0.053099297
120	0xbd21a737	-0.03946611
121	0x3dc668f6	0.096879885
122	0xba06c53e	-0.0005141086
123	0xbd27c127	-0.04095569
124	0x3de2e6d4	0.11079183
125	0xbca91335	-0.020639041
126	0xbdb772e5	-0.08957461
127	0xbd2b8898	-0.041878313
128	0x3cef2af2	0.029195283
129	0x3bcb7d4a	0.006210004
130	0x3d4c35af	0.049855884
131	0x3d8a82f3	0.06763258
132	0xbd5fc995	-0.054635603
133	0xbd147533	-0.036244582
134	0xbe202f20	-0.15642977
135	0x3d078eb6	0.033095084
136	0x3d63ca3a	0.05561278
137	0xbac65d70	-0.0015134048
138	0xb979ddb9	-0.00023829089
139	0xbb79b546	-0.0038102432
140	0xbcfd5764	-0.03092546
141	0xbdd0071e	-0.101576075
142	0xbd20227b	-0.039095383
143	0xbdbca973	-0.092120074
144	0x3d8624be	0.06549977
145	0xbd4ea3f7	-0.050449338
146	0xbdbcc816	-0.09217851
147	0x3cd12a4a	0.02553286
148	0xbddb3de3	-0.10705163
149	0x3c1167c7	0.00887484
150	0x3d10bce9	0.03533641
151	0x3daa2f30	0.083097816
152	0xbe1c1434	-0.15242082
153	0xbdb583f1	-0.088630565
154	0xbbeac77f	-0.007164895
155	0x3cd82d9a	0.026388932
156	0x3df2f64a	0.11863382
157	0x3d86f54c	0.065897554
158	0x3db2fa1f	0.08739113
159	0x3d466724	0.048438206
160	0x3d9d03b8	0.07666725
161	0xbd7347e9	-0.05939475
162	0xbd4889dd	-0.0489596
163	0x3d9bdf04	0.07610896
164	0xbd38f5e8	-0.04515639
165	0x3d7ff13a	0.06248591
166	0xbdb727e5	-0.08943156
167	0x3cd4b6ba	0.025966037
168	0x3d7feb39	0.062480185
169	0x3d2a1349	0.041522298
170	0xbdcbf388	-0.09958559
171	0x3dbedf09	0.09319884
172	0xbd6e4342	-0.05816961
173	0xbd131ae0	-0.035914302
174	0xba66d68f	-0.00088057754
175	0xbc151eae	-0.009101553
176	0x3bd222db	0.0064128465
177	0x3d21020b	0.03930859
178	0xbdd0c203	-0.10193255
179	0xbdf90867	-0.12159806
180	0xbcf7f9a5	-0.030270407
181	0xbd0bc7db	-0.034126144
182	0xbcec198d	-0.028820777
183	0xbd9887f6	-0.074478075
184	0x3d0f4ea8	0.03498712
185	0xbd2b2a15	-0.04178818
186	0x3c3b6cfa	0.011439556
187	0x3dc15af8	0.09441179
188	0xbd51f3de	-0.05125796
189	0x3d102076	0.035187207
190	0xbd136a90	-0.035990298
191	0xbb952872	-0.0045519406
192	0xbd80ec71	-0.062950976
193	0xbd35411f	-0.044251557
194	0x3d6019fd	0.054712284
195	0x3caff423	0.021478718
196	0xbd4531ba	-0.048143126
197	0x3dfe4a9f	0.124165766
198	0x3d8fb19a	0.07016297
199	0x3d453d87	0.04815438
200	0x3e13d10b	0.14435212
201	0x3d0835cc	0.03325443
202	0x3d96776f	0.07346999
203	0x3d8e84ff	0.06958961
204	0xbd290ec6	-0.041273855
205	0xbce7673c	-0.028247468
206	0xbcda5e1d	-0.026656205
207	0xbd48b145	-0.048997182
208	0x3d47f192	0.048814364
209	0xbc31f42e	-0.01086144
210	0xbdfc8ef8	-0.123319566
211	0x3db10061	0.086426504
212	0xbcd99ffa	-0.02656554
213	0xbd8ffe7e	-0.070309624
214	0xbcc7f301	-0.024407865
215	0xbd0fe971	-0.035134736
216	0xbdf6290e	-0.12019549
217	0xbd9aa73b	-0.07551428
218	0xbd0ee171	-0.034882966
219	0xbdaeb029	-0.08529694
220	0x3e12812f	0.14307092
221	0xbd3770c4	-0.044785276
222	0xbc9a8d36	-0.018866163
223	0xbdaab239	-0.083347745
224	0xbd079657	-0.03310236
225	0x3d00f88e	0.03148704
226	0xbcfa1dd2	-0.030531798
227	0xbdd0e932	-0.102007285
228	0xbdb7317f	-0.089449875
229	0x3d83a5fd	0.06428144
230	0xbc23c260	-0.009995073
231	0x3c5e4218	0.013565563
232	0x3ca0ac4b	0.019613406
233	0xbd42393f	-0.047417875
234	0xbdbf8147	-0.093508296
235	0x3e05caa6	0.13065585
236	0xbd4b63c2	-0.049655683
237	0x3d664152	0.056214638
238	0x3dd29e29	0.10284073
239	0x3deff232	0.11716117
240	0xbe2be265	-0.16785581
241	0x3d2c5863	0.04207648
242	0x3d85e376	0.06537525
243	0xbdf2839a	-0.11841507
244	0x3d9bc304	0.07605556
245	0x3cbefea2	0.023314778
246	0x3e05d9d5	0.13071378
247	0xbdbe741b	-0.09299489
248	0xbd291573	-0.04128022
249	0x3def1144	0.11673215
250	0x3cf6c87f	0.0301249
251	0xbd65a4b2	-0.05606527
252	0x3c0a248d	0.008431566
253	0xbba7dd2e	-0.005122802
254	0xbd81dcf2	-0.0634097
255	0xbc78655b	-0.015160884

classifier.2.bias f4 [32]
0	0x3db8de8d	0.09026823
1	0x3d86cf20	0.06582475
2	0xbe14bc3f	-0.14524935
3	0xbe10ef8d	-0.14153881
4	0x3d69b317	0.05705556
5	0xbcf178f3	-0.029476618
6	0xbdc0c515	-0.094125904
7	0xbdef7dee	-0.11693941
8	0x3d6d237c	0.05789517
9	0xbd9a74cb	-0.07541808
10	0x3d85359c	0.06504366
11	0xbc371490	-0.011174336
12	0xbdec5fcb	-0.115417086
13	0xbdfddbc6	-0.12395434
14	0xbd6df776	-0.058097325
15	0xbdd801d3	-0.10547223
16	0x3b2da855	0.0026498039
17	0xbdcdfb02	-0.100576416
18	0xbdaafac7	-0.08348613
19	0x371c731a	9.325124e-06
20	0x3d6662e3	0.05624665
21	0xbd510139	-0.051026557
22	0xbd2e4178	-0.042542905
23	0xbe0ccf83	-0.13751034
24	0x3d193f3f	0.03741383
25	0xbd579bc9	-0.052638803
26	0xbe000126	-0.12500438
27	0xbe11205f	-0.14172505
28	0x3bc8b0d0	0.0061245933
29	0x3d070448	0.032963067
30	0x3d20ec3c	0.03928779
31	0xbd93edac	-0.07223067

exp_avg f4 [64, 768]
0	0xb996c8a5	-0.0002875972
1	0xb9d53d1d	-0.0004067206
2	0xb87ac6aa	-5.9789665e-05
3	0xb8349192	-4.3050917e-05
4	0x3922ebe4	0.000155374
5	0xb9a44cda	-0.00031337776
6	0x39745ee3	0.00023305001
7	0x39c61c7d	0.00037786728
8	0xb9954bec	-0.0002847606
9	0xb9d95e86	-0.0004145989
10	0x37491c2f	1.1987096e-05
11	0xb9739688	-0.00023230363
12	0x3917beca	0.00014471557
13	0x39d53261	0.0004066406
14	0xb7815611	-1.5418076e-05
15	0x399c3bdb	0.00029799234
16	0x39359c22	0.00017319669
17	0x39bad74d	0.00035637096
18	0x3930a786	0.00016847075
19	0xb9a4846f	-0.00031379188
20	0xb8f328c5	-0.00011594737
21	0xb9415762	-0.00018438467
22	0x39c2d049	0.00037157748
23	0x39579545	0.00020559605
24	0xb7d1a3b5	-2.4990974e-05
25	0xb90d7d51	-0.00013493492
26	0xb7e1c3ab	-2.6913205e-05
27	0xb8666d7e	-5.4938246e-05
28	0x39c68a75	0.00037868661
29	0x392e71f1	0.0001663638
30	0xb89cb28f	-7.471919e-05
31	0x389dad73	7.518651e-05
32	0xb9e2104e	-0.00043118227
33	0xb9dc1d2d	-0.00041983408
34	0xb8dd8c3d	-0.000105642226
35	0xb9ec2ec5	-0.00045048274
36	0x37826d8c	1.554822e-05
37	0xb905fada	-0.00012777318
38	0x3830df50	4.2169646e-05
39	0x38607528	5.3514872e-05
40	0x38bddee2	9.0537374e-05
41	0x391054bc	0.00013764476
42	0x391bfaf9	0.00014875447
43	0xb9944152	-0.00028277427
44	0xb9a8377f	-0.00032084805
45	0xb9f1b670	-0.0004610303
46	0xbb7879b0	-0.0037914328
47	0x390e3af0	0.00013564131
48	0xb8532488	-5.0340343e-05
49	0xb928012d	-0.00016022167
50	0x3a0f0cf3	0.00054569467
51	0x39658d7c	0.00021891849
52	0x374e21c3	1.2286418e-05
53	0x3920a4c4	0.00015320169
54	0x39eae6be	0.00044803874
55	0x39e4ba2e	0.00043626264
56	0xba2db01f	-0.00066256704
57	0x39f1b792	0.00046103873
58	0xb89e60b9	-7.552043e-05
59	0xb8e2a9dc	-0.000108081585
60	0x39765bf2	0.0002349464
61	0x39368685	0.00017406985
62	0xb8e4a30f	-0.00010902259
63	0xb915a768	-0.00014272111
64	0xb77b4459	-1.4976679e-05
65	0xb7b3dca9	-2.1441216e-05
66	0xb86a8741	-5.5915913e-05
67	0x393a31fc	0.00017756963
68	0xb8453e4c	-4.702648e-05
69	0x3a22da3f	0.0006212331
70	0xb9272870	-0.00015941425
71	0xb96c2067	-0.00022518785
72	0x38ba28bc	8.8767585e-05
73	0xb8d19ab6	-9.994714e-05
74	0xb81700ca	-3.600194e-05
75	0xb8a05f61	-7.64716e-05
76	0xb7773fbe	-1.4737188e-05
77	0x398e347d	0.00027123457
78	0xb9f3e5a0	-0.00046519656
79	0x3916471f	0.0001433161
80	0x39416f99	0.00018447488
81	0x398f40d0	0.00027323375
82	0x39e52278	0.00043703965
83	0x39acdc5e	0.00032970583
84	0xb8ac03aa	-8.2022816e-05
85	0x38afc5b6	8.381477e-05
86	0xb900d887	-0.00012287694
87	0x37c33b05	2.3273295e-05
88	0x38835ea1	6.264193e-05
89	0x39b544f3	0.0003457438
90	0xba174cb7	-0.0005771624
91	0xb930d2e9	-0.00016863238
92	0xb7d5880d	-2.5454932e-05
93	0x3979c74a	0.00023820731
94	0x3a3fbbea	0.0007314073
95	0xb9bd2df0	-0.00036083115
96	0x391e42a5	0.00015092881
97	0x38ca5ed7	9.649776e-05
98	0x38be016c	9.060171e-05
99	0x39c254a2	0.0003706562
100	0x39b2a977	0.00034077067
101	0xb9b62abf	-0.00034745593
102	0x39231a5b	0.0001555471
103	0xba7a4e2a	-0.00095483905
104	0xb776183b	-1.4668384e-05
105	0x39111c76	0.0001383888
106	0x39add113	0.00033152904
107	0xb9b65e0b	-0.00034783813
108	0xb59fbdab	-1.1901624e-06
109	0xbb083f9f	-0.0020789874
110	0x38d72bf1	0.000102601836
111	0x39876983	0.0002582782
112	0x38e1ccfc	0.000107670174
113	0xb96f092d	-0.00022796234
114	0xb941978d	-0.00018462371
115	0x38f6e5d2	0.000117730015
116	0x3980f44c	0.00024596078
117	0xb995cb64	-0.00028571032
118	0x374e2533	1.2287218e-05
119	0x39bb5f91	0.00035738622
120	0x39239c8f	0.00015603214
121	0x39381206	0.00017554322
122	0xb90068a3	-0.00012246011
123	0x3729dcc8	1.012459e-05
124	0xb920793a	-0.0001530395
125	0x39d617e4	0.0004083506
126	0xb8dc4cc3	-0.000105047155
127	0xb94b69bd	-0.00019398979
128	0x3887d2b8	6.476551e-05
129	0x39aac4ed	0.00032571648
130	0x3a21f1f8	0.0006177719
131	0x39489092	0.00019127343
132	0xb8d43414	-0.00010118648
133	0xb98acbe1	-0.00026473313
134	0xb94470ad	-0.00018733992
135	0x399242a2	0.00027896935
136	0xb6a73481	-4.9831e-06
137	0xb7caf66b	-2.4195024e-05
138	0xb9ce3e3a	-0.00039337744
139	0x39836748	0.00025063218
140	0xb93ba8a1	-0.00017896529
141	0xb98ba7ff	-0.00026637313
142	0xbb460305	-0.0030214202
143	0x3a05c703	0.00051032024
144	0x3a48808c	0.00076485495
145	0x3838e017	4.407772e-05
146	0xb88271da	-6.2200896e-05
147	0x38305ac3	4.20462e-05
148	0xb730c821	-1.0537014e-05
149	0x382419f7	3.912483e-05
150	0x38f6522c	0.000117455
151	0x388fe799	6.86191e-05
152	0xb95a9b10	-0.00020847865
153	0xb93bffa4	-0.00017928943
154	0xb98b833a	-0.00026609917
155	0x396e0b14	0.00022701576
156	0xb9d95594	-0.00041453226
157	0x38b7d9e1	8.766703e-05
158	0x39611ce9	0.00021468442
159	0x38181524	3.6259313e-05
160	0x39efee36	0.00045763113
161	0xb96ce20f	-0.00022590927
162	0xb8bb9887	-8.945265e-05
163	0xb86fbc4c	-5.7157406e-05
164	0x37104398	8.598807e-06
165	0x398f2832	0.00027305033
166	0x394529f0	0.00018803007
167	0xb9466d78	-0.00018923532
168	0xb9c92c47	-0.00038370697
169	0x38fa652b	0.00011939773
170	0xb8f9d51b	-0.00011912939
171	0x3a0d8b3d	0.0005399471
172	0x39e13f63	0.0004296257
173	0xb8b0c110	-8.428295e-05
174	0x398894f6	0.00026050926
175	0x38227216	3.873006e-05
176	0x389494ca	7.084904e-05
177	0x39b8a552	0.00035218388
178	0x38f91cbb	0.00011878597
179	0xb94df096	-0.00019639949
180	0xb9ad50a9	-0.00033057228
181	0x3a330901	0.000682965
182	0xb7fbd778	-3.0021867e-05
183	0x38041569	3.1491192e-05
184	0x38d785ef	0.00010276946
185	0xb8d35dea	-0.00010078757
186	0x38ec3d72	0.00011264802
187	0xb92a4f2d	-0.00016241959
188	0xb955e45d	-0.00020398335
189	0x383ce46e	4.5035435e-05
190	0xb80dcba9	-3.3806693e-05
191	0xb8ed19c5	-0.000113058406
192	0xb9ed95c0	-0.00045315735
193	0xb9cc92dc	-0.0003901933
194	0x3a0f6e0c	0.00054714154
195	0xb7c7a295	-2.3798357e-05
196	0x399067ee	0.00027543254
197	0xba12bdd0	-0.0005597742
198	0x3694c69f	4.4338663e-06
199	0x3808d188	3.2620068e-05
200	0xb98b559b	-0.00026575927
201	0xb9062f77	-0.00012796918
202	0x390d425b	0.00013471527
203	0x397205ec	0.00023081125
204	0xb93f1f5b	-0.0001822686
205	0x3b67f92d	0.0035396323
206	0xb6e90b8c	-6.9452853e-06
207	0x38e1a195	0.00010758933
208	0x39e426f4	0.0004351657
209	0x38db307c	0.00010451765
210	0xb8d414d0	-0.000101128244
211	0x38ad35da	8.2593135e-05
212	0xb74f5b40	-1.2359407e-05
213	0xb8a0b3cb	-7.6628836e-05
214	0x388db239	6.7566005e-05
215	0x39487f87	0.00019120994
216	0x39207564	0.0001530252
217	0xb95dd70b	-0.00021156312
218	0x38a28681	7.749815e-05
219	0xb9467e58	-0.00018929818
220	0x39aa63ed	0.00032499377
221	0x393d20ba	0.00018036636
222	0xb7acb337	-2.0587451e-05
223	0x37d0fbc9	2.4912779e-05
224	0xb7cda966	-2.4516787e-05
225	0x39e0347c	0.00042763713
226	0xb8ca13dc	-9.63581e-05
227	0x37af32e0	2.0885316e-05
228	0x39aa29bd	0.00032456024
229	0xbab70eea	-0.0013966237
230	0xb7dc8145	-2.628624e-05
231	0x39584a95	0.00020627149
232	0xb98972f3	-0.0002621632
233	0x39842470	0.0002520415
234	0xb98aa756	-0.00026446086
235	0xb9273783	-0.00015947041
236	0x3972e656	0.00023164725
237	0xb901d420	-0.00012381421
238	0x387b13df	5.986157e-05
239	0xb7d62631	-2.5528572e-05
240	0xb8998c91	-7.321791e-05
241	0x39313e29	0.00016903192
242	0x3942c938	0.00018576242
243	0x398ba089	0.00026631754
244	0xb8f31b20	-0.000115921954
245	0x398232c8	0.00024833367
246	0x3942f40f	0.000185922
247	0xb8e31821	-0.00010828698
248	0x38dbc20c	0.00010478878
249	0xb9d748ef	-0.00041062335
250	0x39060a0e	0.00012782982
251	0x37f27673	2.8903805e-05
252	0x39243a2f	0.00015661934
253	0x360b37de	2.0745133e-06
254	0x39dfc7d2	0.00042682752
255	0x38a3d9ee	7.813038e-05

exp_avg_sq f4 [64, 768]
0	0x33bd0d61	8.803432e-08
1	0x33f6dcb2	1.1495412e-07
2	0x33410295	4.4938663e-08
3	0x334b88ef	4.738916e-08
4	0x332e8872	4.063663e-08
5	0x342e977b	1.6260121e-07
6	0x347c9ae4	2.3525678e-07
7	0x348bb815	2.6024705e-07
8	0x33566023	4.9913194e-08
9	0x33f2e71c	1.1311042e-07
10	0x329bdf69	1.814597e-08
11	0x32d7e33c	2.5132628e-08
12	0x32ee6d15	2.7756451e-08
13	0x3516ee67	5.6226276e-07
14	0x32cf5153	2.4134954e-08
15	0x34b23ffe	3.3201644e-07
16	0x3304d88d	3.0930597e-08
17	0x3477340f	2.3022606e-07
18	0x33a3b027	7.622321e-08
19	0x33969fc9	7.013984e-08
20	0x3329dc52	3.954876e-08
21	0x341732ea	1.4081493e-07
22	0x34481062	1.8632412e-07
23	0x34266017	1.5494912e-07
24	0x3412bfa4	1.3667028e-07
25	0x32f36964	2.833685e-08
26	0x32bc5f39	2.1929383e-08
27	0x333182dd	4.1330043e-08
28	0x3362a1b5	5.2766797e-08
29	0x32be8704	2.218031e-08
30	0x3319e06f	3.582721e-08
31	0x326f5e54	1.3933079e-08
32	0x348aff43	2.589023e-07
33	0x349fc37f	2.97583e-07
34	0x3346a4ab	4.6250232e-08
35	0x34d20ac4	3.912338e-07
36	0x32ca19df	2.352766e-08
37	0x3324042f	3.818803e-08
38	0x32b1a46b	2.068028e-08
39	0x33276d24	3.898198e-08
40	0x330fe214	3.35004e-08
41	0x34026423	1.2143623e-07
42	0x330069b9	2.9898477e-08
43	0x34497ae2	1.8764288e-07
44	0x339b2cd4	7.225904e-08
45	0x3439b21f	1.7294268e-07
46	0x37f4c922	2.9180726e-05
47	0x32a80be0	1.9563174e-08
48	0x3401d621	1.2091961e-07
49	0x33adeac0	8.098641e-08
50	0x350c9e4a	5.2384405e-07
51	0x332270c6	3.782113e-08
52	0x333f2827	4.450717e-08
53	0x34a99155	3.1584446e-07
54	0x350c081d	5.216587e-07
55	0x34dd7cf9	4.1255387e-07
56	0x34d768d1	4.0123135e-07
57	0x34a6b805	3.10538e-07
58	0x32d84b5c	2.5179979e-08
59	0x33849993	6.174664e-08
60	0x34acaa51	3.2161418e-07
61	0x33a0a390	7.4803324e-08
62	0x33d82707	1.0065383e-07
63	0x331baa3d	3.624358e-08
64	0x32a81156	1.9565658e-08
65	0x32e0bb96	2.6162336e-08
66	0x3343bda2	4.5574446e-08
67	0x3401d52f	1.2091617e-07
68	0x3428f2ee	1.5734597e-07
69	0x3550e29c	7.78158e-07
70	0x34456315	1.83831e-07
71	0x34100683	1.3413414e-07
72	0x338e4338	6.624617e-08
73	0x33bee5f7	8.889395e-08
74	0x33050ae8	3.0976395e-08
75	0x33b41afb	8.386811e-08
76	0x3339f412	4.329565e-08
77	0x34784256	2.3120933e-07
78	0x348c82a7	2.6172094e-07
79	0x33029025	3.0399082e-08
80	0x344c17c8	1.9007632e-07
81	0x34d0d303	3.889655e-07
82	0x349ddda6	2.94048e-07
83	0x34023b32	1.2128729e-07
84	0x3365d977	5.3516e-08
85	0x335d437d	5.1516952e-08
86	0x333266fc	4.153752e-08
87	0x32aa5431	1.982889e-08
88	0x346d1e82	2.2083444e-07
89	0x34e1dc9e	4.2070036e-07
90	0x3513bbb0	5.503489e-07
91	0x3347c596	4.6513e-08
92	0x32f81e04	2.888465e-08
93	0x339c5574	7.27986e-08
94	0x357547b8	9.1373977e-07
95	0x351c9752	5.833473e-07
96	0x3384c718	6.182944e-08
97	0x32f5bd0a	2.8607719e-08
98	0x33c7fd76	9.312764e-08
99	0x34a3bbe1	3.0497816e-07
100	0x348e2c54	2.6481814e-07
101	0x33840b0f	6.1487405e-08
102	0x336eb742	5.5580365e-08
103	0x35d5c6ff	1.5927652e-06
104	0x330f18c3	3.3317303e-08
105	0x3370f5f3	5.6103044e-08
106	0x33ced1ce	9.630786e-08
107	0x348a0961	2.5711327e-07
108	0x32bd31fc	2.2025226e-08
109	0x373a6436	1.1109796e-05
110	0x345ae453	2.0385896e-07
111	0x34f576c7	4.5721228e-07
112	0x32f3922a	2.8355391e-08
113	0x351c0920	5.812781e-07
114	0x33a5c1c6	7.7186584e-08
115	0x344261d6	1.810325e-07
116	0x334b069a	4.7270625e-08
117	0x3470ffde	2.2444826e-07
118	0x331d2cf0	3.659528e-08
119	0x3458eaa7	2.0201934e-07
120	0x339b3e8f	7.229129e-08
121	0x341ef32c	1.4803362e-07
122	0x343160a0	1.6519562e-07
123	0x33d3b1ab	9.857771e-08
124	0x3390065d	6.70668e-08
125	0x3502d323	4.873602e-07
126	0x334bf170	4.7484207e-08
127	0x34696267	2.1735615e-07
128	0x33164bb7	3.499346e-08
129	0x34b9bfca	3.459848e-07
130	0x356ddae9	8.8607936e-07
131	0x3504b1e0	4.9432674e-07
132	0x32fa65ad	2.9150067e-08
133	0x33ceab8f	9.623829e-08
134	0x342662e3	1.549593e-07
135	0x34b87c53	3.4363129e-07
136	0x342ab002	1.5896515e-07
137	0x3317e769	3.5367894e-08
138	0x33e3c8cd	1.0607037e-07
139	0x3315058c	3.469681e-08
140	0x34620a4c	2.1051636e-07
141	0x34a99c5f	3.1592478e-07
142	0x37cf4725	2.4709452e-05
143	0x355d9949	8.2551975e-07
144	0x35a5c2a0	1.2350101e-06
145	0x33b8e3b9	8.60959e-08
146	0x339457d4	6.907763e-08
147	0x339cc6c0	7.3004685e-08
148	0x33148cdd	3.458705e-08
149	0x32d5df00	2.4897872e-08
150	0x331912fb	3.564035e-08
151	0x3304ece7	3.0949106e-08
152	0x341ab481	1.4408035e-07
153	0x342059b3	1.4933794e-07
154	0x33e377a6	1.0592275e-07
155	0x334b7d0b	4.7378347e-08
156	0x33c8b22a	9.3456336e-08
157	0x339fe9a2	7.446512e-08
158	0x34326ea7	1.6617797e-07
159	0x3354580d	4.9440178e-08
160	0x352bf27a	6.4055314e-07
161	0x33813f2f	6.0185236e-08
162	0x3383693d	6.1193056e-08
163	0x33a198ef	7.524965e-08
164	0x33f9ccaf	1.1632198e-07
165	0x338fad14	6.690439e-08
166	0x344b0dcf	1.8910872e-07
167	0x336edff5	5.561738e-08
168	0x3394c346	6.927307e-08
169	0x33090cf8	3.1909593e-08
170	0x328590cc	1.5549084e-08
171	0x346bc7a4	2.195871e-07
172	0x3550ffb3	7.785813e-07
173	0x347a3e3c	2.3305705e-07
174	0x347d036c	2.3563706e-07
175	0x32c337b3	2.2726317e-08
176	0x338f7736	6.680641e-08
177	0x3510dd2e	5.396604e-07
178	0x3390f41b	6.749925e-08
179	0x33d6f7e4	1.00102426e-07
180	0x34dca5bc	4.109878e-07
181	0x358d198c	1.0512754e-06
182	0x32c0d3be	2.2448031e-08
183	0x338f8baa	6.684361e-08
184	0x32fc989e	2.9406063e-08
185	0x3386fac7	6.2854774e-08
186	0x34024cd3	1.2135142e-07
187	0x34a59e84	3.084898e-07
188	0x33f56d84	1.1428622e-07
189	0x335f1141	5.1936926e-08
190	0x33dbc1db	1.0233244e-07
191	0x3476cd4e	2.2985225e-07
192	0x3400c58e	1.1992799e-07
193	0x342f8e4b	1.6349911e-07
194	0x353cc82f	7.0326763e-07
195	0x32b29d89	2.0793566e-08
196	0x33684f39	5.4088762e-08
197	0x3522c1b2	6.0631567e-07
198	0x33964cd5	6.998895e-08
199	0x3393d98c	6.8847925e-08
200	0x34a37483	3.044589e-07
201	0x32d169f2	2.437898e-08
202	0x334566f6	4.596128e-08
203	0x335e8532	5.1809543e-08
204	0x348833e7	2.5369738e-07
205	0x3817fb8e	3.6235484e-05
206	0x32fa7965	2.9159034e-08
207	0x3307fccd	3.1662058e-08
208	0x34024374	1.2131733e-07
209	0x34877f4a	2.5238324e-07
210	0x32ff90e9	2.9751805e-08
211	0x33549dc1	4.9503573e-08
212	0x32d7ef75	2.5138187e-08
213	0x33fa7787	1.1663274e-07
214	0x32a6300c	1.9346793e-08
215	0x33e25a89	1.0540413e-07
216	0x3446c5d2	1.8512154e-07
217	0x33c94463	9.372231e-08
218	0x334fae2d	4.8354355e-08
219	0x335e8b92	5.181534e-08
220	0x3417b8fa	1.4130265e-07
221	0x33c63201	9.229189e-08
222	0x33870915	6.2880794e-08
223	0x331a40f0	3.591498e-08
224	0x33d8b024	1.00903236e-07
225	0x349304e1	2.7384434e-07
226	0x342284cd	1.5135738e-07
227	0x344ccf35	1.9074362e-07
228	0x34afb770	3.2729758e-07
229	0x36c57787	5.8849723e-06
230	0x32d687a3	2.497456e-08
231	0x33df4daa	1.0398374e-07
232	0x343fa28a	1.7847393e-07
233	0x3505aaf8	4.9795153e-07
234	0x349e4033	2.9476504e-07
235	0x333485ce	4.203121e-08
236	0x32d64e4e	2.4948488e-08
237	0x33c12a3f	8.9949474e-08
238	0x330d058b	3.2834162e-08
239	0x32c6e9fc	2.3156637e-08
240	0x33a7b827	7.8100406e-08
241	0x33ea6737	1.0915249e-07
242	0x33f97c83	1.16176146e-07
243	0x3498a9e5	2.843582e-07
244	0x343fdff2	1.7869732e-07
245	0x346e08b8	2.2168649e-07
246	0x347bfaf7	2.3467497e-07
247	0x3339da93	4.327246e-08
248	0x32f3d1a7	2.8384262e-08
249	0x33b19783	8.2697646e-08
250	0x3374a46d	5.696022e-08
251	0x3366cff3	5.3740177e-08
252	0x32eea859	2.7783402e-08
253	0x341240cd	1.3620884e-07
254	0x34f17eac	4.4981914e-07
255	0x348c9e5a	2.6192248e-07

exp_avg f4 [64]
0	0x3a92b6f3	0.0011193439
1	0xb6ce8c68	-6.155624e-06
2	0x37530afd	1.25791385e-05
3	0x3a55869f	0.0008145365
4	0xba21c94a	-0.0006171657
5	0x34bc747a	3.5102477e-07
6	0x3891f155	6.9590904e-05
7	0xb6cfe569	-6.1957876e-06
8	0xb713ecd5	-8.8170245e-06
9	0x3a7bea96	0.0009609846
10	0xb6108207	-2.1533358e-06
11	0x37f67c09	2.9383244e-05
12	0x3a360cd2	0.00069446594
13	0x362690a6	2.4820124e-06
14	0xbae82506	-0.0017711229
15	0x39b97d27	0.00035379195
16	0xba896ebe	-0.0010485274
17	0xbaa95d5c	-0.00129215
18	0x3a231b9a	0.00062220695
19	0xb7048d19	-7.900665e-06
20	0x38a369e5	7.79217e-05
21	0xbb0803f0	-0.00207543
22	0xb9b2aed1	-0.00034081054
23	0x3a12a9b3	0.0005594745
24	0x3ad82757	0.0016491216
25	0x3695b7a5	4.461925e-06
26	0xb606e58e	-2.0101174e-06
27	0x36c7acc5	5.950775e-06
28	0xb763d201	-1.357915e-05
29	0xb94aa989	-0.00019327378
30	0x366aa3b9	3.4964016e-06
31	0xbace5691	-0.0015742352
32	0xb9c90bd7	-0.0003834653
33	0xb746fb7e	-1.1860275e-05
34	0x365f3764	3.326183e-06
35	0xba868a78	-0.0010264656
36	0xb71f0fbf	-9.480805e-06
37	0xb69725c8	-4.504549e-06
38	0xb969591a	-0.00022253804
39	0x37347b0b	1.0757484e-05
40	0x3684ab41	3.953843e-06
41	0xba2f0a0b	-0.0006677217
42	0x35e7d11b	1.7271699e-06
43	0x36bf5d0c	5.7030757e-06
44	0x3aab4141	0.0013065712
45	0x373573c7	1.0815397e-05
46	0xb70ef350	-8.52051e-06
47	0x37383bb5	1.0981156e-05
48	0xba8b9a53	-0.0010650851
49	0x398820a1	0.00025964252
50	0x3a655b0e	0.0008749225
51	0xbac3b946	-0.0014932535
52	0xb6f6da90	-7.3568153e-06
53	0xb994b778	-0.00028365455
54	0xb65eb290	-3.3184515e-06
55	0xb5534845	-7.870879e-07
56	0xb6f960f3	-7.4320646e-06
57	0xb7a24a06	-1.9346375e-05
58	0x3a919a45	0.0011108598
59	0x366846d5	3.4611924e-06
60	0xba6ee148	-0.0009112549
61	0x3a745b62	0.00093214784
62	0x3aa8dbc1	0.0012882875
63	0x35aa7578	1.2700175e-06

exp_avg_sq f4 [64]
0	0x3651fcf6	3.129067e-06
1	0x322198f5	9.406212e-09
2	0x2ff005ec	4.3659953e-10
3	0x35d1f312	1.5642456e-06
4	0x35d82f62	1.6107044e-06
5	0x2f5b2568	1.9931223e-10
6	0x360b95eb	2.0799878e-06
7	0x2f726da9	2.2048731e-10
8	0x2fc64c74	3.6070313e-10
9	0x35d4834a	1.5833441e-06
10	0x3227b789	9.76241e-09
11	0x360952da	2.0462817e-06
12	0x3607e9b8	2.025261e-06
13	0x2f9c6751	2.8449645e-10
14	0x35d342f9	1.5740217e-06
15	0x35a84d9a	1.253956e-06
16	0x361657c8	2.2402837e-06
17	0x36932554	4.385287e-06
18	0x35c18788	1.4419065e-06
19	0x331b7175	3.619194e-08
20	0x34b5e21e	3.38784e-07
21	0x37020849	7.750533e-06
22	0x3518abac	5.687423e-07
23	0x35960392	1.117691e-06
24	0x36b27a5c	5.319058e-06
25	0x2fa3807d	2.9740824e-10
26	0x308ebec7	1.0386082e-09
27	0x2ff25898	4.4082493e-10
28	0x30261424	6.041907e-10
29	0x34d72887	4.0076358e-07
30	0x2ec92edd	9.148746e-11
31	0x36bea6de	5.681867e-06
32	0x35437f59	7.2828476e-07
33	0x2f961b6e	2.730433e-10
34	0x2ec57b0d	8.980381e-11
35	0x36101586	2.14702e-06
36	0x2f6462e8	2.0771618e-10
37	0x2e7fefc6	5.819325e-11
38	0x343d895e	1.765197e-07
39	0x31774108	3.5980197e-09
40	0x2f5f871b	2.0329731e-10
41	0x357129a1	8.9840074e-07
42	0x31458edc	2.874848e-09
43	0x2f2a8f6a	1.5512361e-10
44	0x3674267d	3.6381236e-06
45	0x30a8215a	1.2233088e-09
46	0x317135ba	3.5100656e-09
47	0x2fb341cb	3.260666e-10
48	0x361464db	2.2112424e-06
49	0x349944e2	2.854859e-07
50	0x35dd4ec7	1.648871e-06
51	0x36991498	4.5621528e-06
52	0x30bf1af3	1.3904738e-09
53	0x35db2a94	1.6329163e-06
54	0x30fc735d	1.8368201e-09
55	0x33608783	5.227731e-08
56	0x2f77a76c	2.2524e-10
57	0x304979a3	7.329623e-10
58	0x3647a4bd	2.97492e-06
59	0x2ea1f8df	7.365641e-11
60	0x36182ccc	2.267584e-06
61	0x35f8b021	1.85287e-06
62	0x36214db6	2.4036103e-06
63	0x2d230c4d	9.268209e-12

exp_avg f4 [32, 64]
0	0x3c8a1def	0.016859977
1	0xb8b0c4e5	-8.4290084e-05
2	0xb99daf4e	-0.00030075986
3	0x3c9d5b52	0.019208584
4	0x3cf2bb84	0.02963043
5	0xb9a3aaca	-0.0003121703
6	0x3cecd13e	0.028908368
7	0xb981b67a	-0.00024740753
8	0xb8a77a38	-7.9859456e-05
9	0x3bb77878	0.005599078
10	0xb8e04126	-0.00010693287
11	0x3cecfb67	0.028928472
12	0x3c9f8d2c	0.019476496
13	0xb8cd5a9c	-9.792039e-05
14	0x3bf41e32	0.0074498886
15	0x3ce626ab	0.02809461
16	0x3c3583e9	0.011078813
17	0x3cd9c559	0.02658336
18	0x3cacff4c	0.021117829
19	0xb8e58303	-0.00010943974
20	0x3ccae7e1	0.024768772
21	0x3c37cf99	0.011218929
22	0x3cd63af1	0.026151152
23	0x3cc3f9b5	0.02392278
24	0x3b329bde	0.0027253549
25	0xb955d896	-0.00020393947
26	0xb8ad555d	-8.265183e-05
27	0xb916aff7	-0.00014370667
28	0xb8c97381	-9.605941e-05
29	0x3cdfe5e8	0.027331308
30	0xb9b3b80b	-0.00034278663
31	0x3ca8c0a8	0.020599678
32	0x3cd7770b	0.026301881
33	0xb8944770	-7.070496e-05
34	0xb9af7a15	-0.0003346956
35	0x3c844d14	0.016150035
36	0xb93ca895	-0.00017991879
37	0xb977d6e4	-0.00023635809
38	0x3ce1fbb1	0.027585836
39	0xb8bcc03a	-9.0003436e-05
40	0xb9ae2cc9	-0.00033221234
41	0x3c9a8e6f	0.018866746
42	0xb8e00a8c	-0.00010683117
43	0xb9b139fc	-0.00033803273
44	0x3c16204f	0.009162976
45	0xb8f189a2	-0.000115174116
46	0xb813c110	-3.5227335e-05
47	0xb9acf4f6	-0.00032988907
48	0x3c52addc	0.012858834
49	0x3ccbf694	0.024897851
50	0x3c5c2c80	0.013438344
51	0x3c71104d	0.014713359
52	0xb8a6bfce	-7.951223e-05
53	0x3d023c42	0.031795748
54	0xb8aa3000	-8.1151724e-05
55	0xb8f7e14a	-0.00011819841
56	0xb98803a1	-0.00025942645
57	0xb78ce312	-1.6795038e-05
58	0x3c93d0a0	0.018043816
59	0xb8b7dbd9	-8.76707e-05
60	0x3cef86cf	0.029239086
61	0x3c75bb0a	0.014998207
62	0x39e5ae43	0.0004380812
63	0xb9a67d6f	-0.00031755443
64	0xbc8af700	-0.016963482
65	0x38b1bbc4	8.474992e-05
66	0x399e4704	0.0003018902
67	0xbc9e4677	-0.01932071
68	0xbcf3b7a8	-0.02975066
69	0x39a46df0	0.00031362427
70	0xbcede81e	-0.029041346
71	0x398261dc	0.00024868443
72	0x38a8a026	8.040694e-05
73	0xbbb94c60	-0.0056548566
74	0x38e14bfb	0.000107429885
75	0xbcee10e0	-0.029060781
76	0xbca06790	-0.019580632
77	0x38ce3b62	9.8339064e-05
78	0xbbf4cdb3	-0.0074708103
79	0xbce741b4	-0.028229572
80	0xbc35fe7b	-0.011108036
81	0xbcda95e1	-0.026682796
82	0xbcadebe0	-0.021230638
83	0x38e689c3	0.00010992915
84	0xbccbe208	-0.024888054
85	0xbc381150	-0.011234596
86	0xbcd7113e	-0.026253339
87	0xbcc50102	-0.024048332
88	0xbb358bb7	-0.0027701685
89	0x3956b3a1	0.00020475547
90	0x38ae3418	8.30667e-05
91	0x39174ebf	0.00014429817
92	0x38cace43	9.67053e-05
93	0xbce0d4ae	-0.027445164
94	0x39b4775c	0.00034421205
95	0xbca94c6b	-0.020666322
96	0xbcd856c0	-0.026408553
97	0x3895a9b3	7.1364826e-05
98	0x39b036dd	0.00033610212
99	0xbc84aa20	-0.016194403
100	0x393dcd9f	0.00018101044
101	0x397937fd	0.00023767348
102	0xbce2e8b8	-0.02769886
103	0x38bd70a5	9.033204e-05
104	0x39aee8e5	0.00033361386
105	0xbc9b0301	-0.01892233
106	0x38e0f4e0	0.00010726764
107	0x39b1f42c	0.00033941993
108	0xbc173e19	-0.009231114
109	0x38f260ed	0.00011557513
110	0x3814c709	3.5471316e-05
111	0x39ad9d7e	0.00033114472
112	0xbc532fae	-0.012889786
113	0xbcccff12	-0.02502397
114	0xbc5d9b82	-0.0135258455
115	0xbc71affe	-0.014751432
116	0x38a7bf05	7.998761e-05
117	0xbd02cf3f	-0.031935927
118	0x38ab1845	8.158436e-05
119	0x38f8eb0b	0.00011869342
120	0x3988bd0f	0.000260808
121	0x37909185	1.72339e-05
122	0xbc94b5b9	-0.018153058
123	0x38b8679d	8.793103e-05
124	0xbcf06edf	-0.029349742
125	0xbc774902	-0.01509309
126	0xb9f537c2	-0.00046771584
127	0x39a728c1	0.00031883086
128	0x38a5e767	7.910915e-05
129	0xb4c5d108	-3.68462e-07
130	0xb57532ce	-9.1343543e-07
131	0x38b346e2	8.548588e-05
132	0x38c7b660	9.5230294e-05
133	0xb59a0f5e	-1.1478367e-06
134	0x38ddbfa2	0.000105737956
135	0xb584075c	-9.836908e-07
136	0xb4e1d8ee	-4.2067353e-07
137	0x382855bb	4.0134164e-05
138	0xb4d68177	-3.9954804e-07
139	0x38dc918f	0.0001051753
140	0x38a916c9	8.062792e-05
141	0xb4aeca5f	-3.255727e-07
142	0x37af3a99	2.0888912e-05
143	0x38df86a4	0.000106585474
144	0x37d6394a	2.5537465e-05
145	0x38a813e6	8.0145706e-05
146	0x38b81393	8.77745e-05
147	0xb4da9ebb	-4.0721156e-07
148	0x38c38232	9.322575e-05
149	0x37953cac	1.7790437e-05
150	0x38ada411	8.2798426e-05
151	0x38cdb682	9.8091565e-05
152	0x38026d96	3.1096475e-05
153	0xb530f873	-6.592665e-07
154	0xb4ae7fea	-3.2503095e-07
155	0xb4fe7bde	-4.7401312e-07
156	0xb502ad44	-4.868091e-07
157	0x38bfa53b	9.138366e-05
158	0xb598dd2b	-1.1389251e-06
159	0x3866db76	5.5040662e-05
160	0x38b344fa	8.548233e-05
161	0xb503572c	-4.8928155e-07
162	0xb596702b	-1.1208516e-06
163	0x3823c81e	3.9048602e-05
164	0xb55ecad9	-8.2996627e-07
165	0xb588c1dd	-1.0189211e-06
166	0x38bdb27d	9.045468e-05
167	0xb48f7c54	-2.6726286e-07
168	0xb5956969	-1.1132043e-06
169	0x3846637a	4.7299523e-05
170	0xb4b70e3d	-3.4096766e-07
171	0xb5935ad2	-1.0978786e-06
172	0x38565810	5.110359e-05
173	0xb4b06bcf	-3.2860996e-07
174	0xb453c278	-1.9721654e-07
175	0xb587b80e	-1.0111851e-06
176	0x37ece984	2.8242132e-05
177	0x38ce93c0	9.850366e-05
178	0x388ade2f	6.621738e-05
179	0x3812c1c9	3.498959e-05
180	0xb4c19cab	-3.6063042e-07
181	0x38e9a3e5	0.000111408335
182	0xb4bae647	-3.481275e-07
183	0xb4de3503	-4.1389293e-07
184	0xb58fa029	-1.0700943e-06
185	0xb4a6ac90	-3.1045465e-07
186	0x38afda06	8.38526e-05
187	0xb4707ec2	-2.2397856e-07
188	0x38bbe994	8.960362e-05
189	0x3896d63b	7.192461e-05
190	0x37bc0f4d	2.2418471e-05
191	0xb58991aa	-1.0249689e-06
192	0x38f1b879	0.00011526136
193	0xb50b77e8	-5.195602e-07
194	0xb5a41220	-1.2224227e-06
195	0x3901369a	0.0001232274
196	0x3906a1e8	0.0001283955
197	0xb5d5e413	-1.5936115e-06
198	0x391a763d	0.00014730632
199	0xb5bba243	-1.397981e-06
200	0xb526a4bc	-6.207954e-07
201	0x3881ddba	6.192499e-05
202	0xb5167ae0	-5.605816e-07
203	0x39193c53	0.0001461369
204	0x38f34b3a	0.00011601155
205	0xb4eb7dd6	-4.386372e-07
206	0x37da5d81	2.6031166e-05
207	0x391dc13b	0.0001504467
208	0x37fb5b6b	2.9964101e-05
209	0x38df59d1	0.00010650198
210	0x3903cc52	0.00012569249
211	0xb5196176	-5.7138766e-07
212	0x3908b0d8	0.0001303585
213	0x379ae52c	1.8464947e-05
214	0x38e9c71e	0.00011147394
215	0x3912d533	0.00014003068
216	0x384d2114	4.8906615e-05
217	0xb56ea0fe	-8.8896184e-07
218	0xb4f5bb56	-4.577111e-07
219	0xb529808e	-6.314448e-07
220	0xb53ff736	-7.1512784e-07
221	0x3902015e	0.00012398275
222	0xb5cfb497	-1.547526e-06
223	0x3894ed92	7.101441e-05
224	0x38f0d84d	0.00011484381
225	0xb5464b90	-7.3870706e-07
226	0xb5ccdbe0	-1.5263176e-06
227	0x384a1992	4.8184367e-05
228	0xb5a1e0d4	-1.2060868e-06
229	0xb5c39ec8	-1.4574844e-06
230	0x38fd74af	0.00012085714
231	0xb4bf18c7	-3.559455e-07
232	0xb5cc87de	-1.5238727e-06
233	0x387917d4	5.9388418e-05
234	0xb4fca6e1	-4.7060078e-07
235	0xb5c825d2	-1.4912168e-06
236	0x38a0e865	7.6726814e-05
237	0xb4e90ae1	-4.3407547e-07
238	0xb497f355	-2.830299e-07
239	0xb5b5877e	-1.3524984e-06
240	0x380d897e	3.374507e-05
241	0x3912666c	0.000139618
242	0x38cc08c2	9.729109e-05
243	0x3831be99	4.2377596e-05
244	0xb50b0270	-5.178508e-07
245	0x3920276a	0.00015273472
246	0xb5047258	-4.9340224e-07
247	0xb51bea76	-5.8083185e-07
248	0xb5ccf9bc	-1.5271867e-06
249	0xb5044108	-4.9268465e-07
250	0x38ffcf7a	0.00012197993
251	0xb4975a38	-2.8191585e-07
252	0x38f9cc1f	0.00011911266
253	0x38dd78d1	0.00010560605
254	0x381ca60c	3.734794e-05
255	0xb5bac42a	-1.3915171e-06

exp_avg_sq f4 [32, 64]
0	0x3a97e59e	0.0011588817
1	0x331db54a	3.6719292e-08
2	0x342d253c	1.6125426e-07
3	0x3abc0aee	0.0014346519
4	0x3ae1bbd6	0.0017222117
5	0x3484aa8c	2.4711005e-07
6	0x3b08dad6	0.002088239
7	0x343de5c2	1.7685582e-07
8	0x3318ed5a	3.5606128e-08
9	0x39b3dc83	0.00034305835
10	0x331cf134	3.6540953e-08
11	0x3b05c618	0.0020412263
12	0x3a96dd13	0.0011509977
13	0x32fb504c	2.925676e-08
14	0x37a8420b	2.0057914e-05
15	0x3b0bba64	0.0021320814
16	0x39199cbe	0.00014649608
17	0x3aa39b9a	0.0012482286
18	0x3ab9abf9	0.0014165632
19	0x3411590a	1.353657e-07
20	0x3ad0cdb7	0.0015930448
21	0x3896dc16	7.1935516e-05
22	0x3aaab394	0.0013023489
23	0x3aefb547	0.0018288278
24	0x3948bfff	0.0001914501
25	0x33b12a24	8.24987e-08
26	0x333eaf03	4.4396995e-08
27	0x333f3817	4.4521666e-08
28	0x334230ee	4.5213646e-08
29	0x3ad6a2ff	0.0016375481
30	0x3481b966	2.4163018e-07
31	0x3a143ae1	0.00056545256
32	0x3ab6bcab	0.0013941725
33	0x335262a3	4.8984145e-08
34	0x3478f2ae	2.3185086e-07
35	0x39a1ec2c	0.00030884275
36	0x340d0f27	1.313716e-07
37	0x344d6ee5	1.9132456e-07
38	0x3ad83567	0.0016495407
39	0x33557a05	4.9703903e-08
40	0x34752536	2.283094e-07
41	0x3a00920d	0.0004904576
42	0x32d3eddf	2.4671804e-08
43	0x34792d05	2.320631e-07
44	0x39feabb4	0.00048574584
45	0x32f02c36	2.7959782e-08
46	0x32bd3e89	2.2030934e-08
47	0x3456287d	1.9945033e-07
48	0x393174c5	0.00016923535
49	0x3af7ee5a	0.0018915639
50	0x3a5ff22f	0.0008542863
51	0x39752cbf	0.0002338169
52	0x332ce177	4.025193e-08
53	0x3b14b0d5	0.0022688408
54	0x32d280ce	2.4505791e-08
55	0x3425e55d	1.5450264e-07
56	0x3462ff6e	2.1140815e-07
57	0x32a8db89	1.9657607e-08
58	0x3ab083e6	0.0013467043
59	0x32767cc0	1.43474495e-08
60	0x3acabe26	0.0015468046
61	0x3a81d62a	0.0009905745
62	0x38980e41	7.25058e-05
63	0x34611ff8	2.0966388e-07
64	0x3a9afa7c	0.0011823918
65	0x331e2693	3.6822325e-08
66	0x3431b201	1.6549167e-07
67	0x3ac12042	0.0014734345
68	0x3ae67a9d	0.0017584149
69	0x34879b52	2.525872e-07
70	0x3b0c18a1	0.0021376985
71	0x34424dae	1.8095918e-07
72	0x331d4ee5	3.6626165e-08
73	0x39b9623b	0.00035359137
74	0x3326a0d3	3.8796156e-08
75	0x3b08e278	0.002088694
76	0x3a992721	0.0011684635
77	0x330f4c76	3.3364323e-08
78	0x37a866c9	2.0075024e-05
79	0x3b0f2237	0.0021840462
80	0x3919f5df	0.00014682811
81	0x3aa75d87	0.0012768962
82	0x3abde112	0.0014486632
83	0x341b8be7	1.4486396e-07
84	0x3ad483c3	0.0016213584
85	0x389825f7	7.254996e-05
86	0x3aada262	0.0013247246
87	0x3af632e0	0.0018783472
88	0x395005a9	0.00019838534
89	0x33b5609e	8.446044e-08
90	0x33665130	5.3624888e-08
91	0x33455ac3	4.5950184e-08
92	0x33489941	4.6705512e-08
93	0x3adb8888	0.0016749064
94	0x348518ab	2.479113e-07
95	0x3a16ce75	0.00057528104
96	0x3aba940c	0.0014234795
97	0x33593a2c	5.0577157e-08
98	0x347e6795	2.3693276e-07
99	0x39a4b90d	0.0003141839
100	0x34110dd1	1.3509204e-07
101	0x3450dbaa	1.9451423e-07
102	0x3add91bf	0.0016904398
103	0x33906a2f	6.724837e-08
104	0x347a8e68	2.3334871e-07
105	0x3a050983	0.0005074965
106	0x32d2d65c	2.4544697e-08
107	0x347feaa9	2.3834095e-07
108	0x3a025c06	0.0004972819
109	0x32ffd730	2.9783763e-08
110	0x3295ee56	1.7454266e-08
111	0x345c930a	2.0542589e-07
112	0x3931b7a5	0.00016948448
113	0x3aff2be1	0.0019468033
114	0x3a6573ba	0.00087529013
115	0x3975c9ec	0.00023440243
116	0x33456116	4.5955936e-08
117	0x3b180894	0.0023198472
118	0x32dac9bd	2.547028e-08
119	0x34434a80	1.8187893e-07
120	0x34688eca	2.165863e-07
121	0x32aced9b	2.0131486e-08
122	0x3ab4de22	0.0013799111
123	0x3280614e	1.494541e-08
124	0x3acf79f3	0.001582919
125	0x3a851850	0.001015434
126	0x38983fe1	7.259823e-05
127	0x3466ccdf	2.1494951e-07
128	0x34ace081	3.2200845e-07
129	0x2e302c9b	4.0057384e-11
130	0x2e5058fa	4.737275e-11
131	0x35168eb3	5.608701e-07
132	0x34d46688	3.9562678e-07
133	0x2ea48cdb	7.4828775e-11
134	0x3516edea	5.6225565e-07
135	0x2e4b6553	4.624685e-11
136	0x2d802d00	1.45719e-11
137	0x3451d3a7	1.954164e-07
138	0x2ddaf9ca	2.489466e-11
139	0x350beec9	5.2129013e-07
140	0x3436e8bf	1.7034743e-07
141	0x2e176ddf	3.443101e-11
142	0x2e3358ba	4.0778693e-11
143	0x35231455	6.075182e-07
144	0x31a84236	4.896971e-09
145	0x34adc5f8	3.2367802e-07
146	0x34a763aa	3.117869e-07
147	0x2fc33f0a	3.5515085e-10
148	0x34904d54	2.6878354e-07
149	0x3180ad04	3.74496e-09
150	0x34514dcf	1.9492948e-07
151	0x3517e649	5.658699e-07
152	0x33d3bca2	9.859765e-08
153	0x2dc46391	2.2326837e-11
154	0x2eadafbe	7.898347e-11
155	0x2d7f0e9a	1.4498314e-11
156	0x2d9ca663	1.7809037e-11
157	0x34d28060	3.9208953e-07
158	0x2e94d329	6.7677704e-11
159	0x33c53334	9.182841e-08
160	0x3488ddc1	2.549332e-07
161	0x2dda3df4	2.4811243e-11
162	0x2e8518ea	6.0525654e-11
163	0x338b2768	6.47986e-08
164	0x2e463fbc	4.5076595e-11
165	0x2e5cc483	5.0196746e-11
166	0x34d41fa8	3.951111e-07
167	0x2f186727	1.3860967e-10
168	0x2e8228c3	5.918956e-11
169	0x3418c238	1.422676e-07
170	0x2d3fca3f	1.0902001e-11
171	0x2e99dd31	6.996926e-11
172	0x33f73bf4	1.1512739e-07
173	0x2d992891	1.7412101e-11
174	0x2e785ac5	5.646929e-11
175	0x2e9d3e82	7.150637e-11
176	0x31a9ca78	4.9415654e-09
177	0x351cc885	5.8406323e-07
178	0x348bef2b	2.6064785e-07
179	0x31f21a4a	7.0461157e-09
180	0x2e86dbf2	6.1326846e-11
181	0x351bc420	5.80274e-07
182	0x2d446cb3	1.1165446e-11
183	0x2ff5a4f9	4.468246e-10
184	0x2e88c9ee	6.220434e-11
185	0x2d29f7a4	9.661525e-12
186	0x34f0d37e	4.4857364e-07
187	0x2d231dbb	9.272079e-12
188	0x34debb63	4.1487064e-07
189	0x34acca1d	3.2184553e-07
190	0x31fd3a86	7.3699225e-09
191	0x2e668769	5.2416214e-11
192	0x3505367b	4.962564e-07
193	0x2e2bb44f	3.9041045e-11
194	0x2ea03651	7.285606e-11
195	0x356cbd2a	8.819212e-07
196	0x3525b96e	6.1737126e-07
197	0x2f02ce23	1.1896666e-10
198	0x356b2dc7	8.7610937e-07
199	0x2e9b7141	7.068702e-11
200	0x2dca7c20	2.3019864e-11
201	0x34aba91d	3.1974278e-07
202	0x2e1c7106	3.557068e-11
203	0x355806a2	8.047592e-07
204	0x3483632d	2.447281e-07
205	0x2e02ceea	2.9742354e-11
206	0x2e5b91a3	4.9924186e-11
207	0x357d59e3	9.4380647e-07
208	0x316da6db	3.4582885e-09
209	0x35030ddf	4.882149e-07
210	0x34ff777e	4.7584393e-07
211	0x2fbc9058	3.4299563e-10
212	0x34db0383	4.0794484e-07
213	0x314b59e3	2.9591483e-09
214	0x349ab38c	2.8815373e-07
215	0x356eeb87	8.9004646e-07
216	0x342763f1	1.5589445e-07
217	0x2e187f55	3.4673892e-11
218	0x2ea4d910	7.4964146e-11
219	0x2dbbe679	2.1361789e-11
220	0x2dfa1166	2.8429436e-11
221	0x3521031b	5.9981693e-07
222	0x2ee92ad5	1.0603222e-10
223	0x340f47eb	1.3344076e-07
224	0x34cd13ac	3.819854e-07
225	0x2e2f085a	3.979781e-11
226	0x2ed1ac53	9.5348306e-11
227	0x33c4f19a	9.170908e-08
228	0x2e9d66a9	7.1577695e-11
229	0x2eaabe5c	7.7645196e-11
230	0x3523c177	6.100376e-07
231	0x2f0669d1	1.2224823e-10
232	0x2ec6c766	9.039418e-11
233	0x346396be	2.1195862e-07
234	0x2d8ee4db	1.6245163e-11
235	0x2ef21bda	1.1009833e-10
236	0x344106df	1.7977025e-07
237	0x2dbee44a	2.170188e-11
238	0x2e5e23ed	5.0508864e-11
239	0x2ef80b26	1.1279715e-10
240	0x315a4127	3.176021e-09
241	0x357a2190	9.31811e-07
242	0x34db053b	4.0795734e-07
243	0x31b5977b	5.2850146e-09
244	0x2e7f2273	5.8010884e-11
245	0x35743ff7	9.0990164e-07
246	0x2d9dc089	1.7934336e-11
247	0x2fe1ed6c	4.109596e-10
248	0x2ed93027	9.876571e-11
249	0x2d8ed2b6	1.6237105e-11
250	0x35400cff	7.1544486e-07
251	0x2d8381da	1.4950641e-11
252	0x352e6f39	6.49819e-07
253	0x350a0af1	5.142493e-07
254	0x326555bf	1.3349051e-08
255	0x2eafdc2c	7.997189e-11

exp_avg f4 [32]
0	0x3bf061f4	0.0073358957
1	0xbbf1841a	-0.007370484
2	0x37dcd4b1	2.6325086e-05
3	0x3817e947	3.6218462e-05
4	0x362a19c6	2.5346976e-06
5	0x372a94ca	1.0167432e-05
6	0x359687fe	1.121545e-06
7	0x365abfd3	3.2596188e-06
8	0x373a5974	1.1107291e-05
9	0x36b9e8d5	5.540535e-06
10	0x3702501f	7.7672585e-06
11	0x35cf2cef	1.5435779e-06
12	0x37a5f802	1.978502e-05
13	0x375289e1	1.2549078e-05
14	0x3638d603	2.7542708e-06
15	0x364b08b8	3.0254432e-06
16	0x380274c7	3.1103173e-05
17	0x362c059d	2.5633265e-06
18	0x36d60c6c	6.379143e-06
19	0x362e544b	2.5977085e-06
20	0x37477564	1.1888656e-05
21	0x3652a9f3	3.1391362e-06
22	0x370a0f2a	8.228972e-06
23	0x35875662	1.0083425e-06
24	0x3697d20a	4.5246024e-06
25	0x34ee35f9	4.4370225e-07
26	0x36736dfe	3.6273846e-06
27	0x35cc1d2a	1.5207672e-06
28	0x37d38a16	2.5217461e-05
29	0x36f50eee	7.303307e-06
30	0x3471ee63	2.2531599e-07
31	0x3831f442	4.242757e-05
